…
I0503 14:53:15.292459 354735552 net.cpp:296] The NetState phase (0) differed from the phase (1) specified by a rule in layer accuracy
I0503 14:53:15.292472 354735552 net.cpp:53] Initializing net from parameters:
name: "ResNet-cifar10"
state {
  phase: TRAIN
  level: 0
  stage: ""
}
layer {
  name: "cifar"
  type: "Data"
  top: "data"
  top: "label"
  include {
    phase: TRAIN
  }
  transform_param {
    mean_file: "examples/cifar10/mean.binaryproto"
  }
  data_param {
    source: "examples/cifar10/cifar10_train_lmdb"
    batch_size: 100
    backend: LMDB
  }
}
layer {
  name: "conv0"
  type: "Convolution"
  bottom: "data"
  top: "conv0"
  param {
    lr_mult: 1
  }
  param {
    lr_mult: 2
  }
  convolution_param {
    num_output: 8
    pad: 1
    kernel_size: 3
    stride: 2
    weight_filler {
      type: "xavier"
    }
    bias_filler {
      type: "constant"
    }
  }
}
layer {
  name: "bn0"
  type: "BatchNorm"
  bottom: "conv0"
  top: "bn0"
  param {
    lr_mult: 0
    decay_mult: 0
  }
  param {
    lr_mult: 0
    decay_mult: 0
  }
  param {
    lr_mult: 0
    decay_mult: 0
  }
}
layer {
  name: "relu0"
  type: "ReLU"
  bottom: "bn0"
  top: "relu0"
  relu_param {
    negative_slope: 0
  }
}
layer {
  name: "block1-conv1"
  type: "Convolution"
  bottom: "relu0"
  top: "block1-conv1"
  param {
    lr_mult: 1
  }
  param {
    lr_mult: 2
  }
  convolution_param {
    num_output: 16
    pad: 1
    kernel_size: 3
    stride: 2
    weight_filler {
      type: "xavier"
    }
    bias_filler {
      type: "constant"
    }
  }
}
layer {
  name: "block1-bn1"
  type: "BatchNorm"
  bottom: "block1-conv1"
  top: "block1-bn1"
  param {
    lr_mult: 0
    decay_mult: 0
  }
  param {
    lr_mult: 0
    decay_mult: 0
  }
  param {
    lr_mult: 0
    decay_mult: 0
  }
}
layer {
  name: "block1-relu1"
  type: "ReLU"
  bottom: "block1-bn1"
  top: "block1-relu1"
  relu_param {
    negative_slope: 0
  }
}
layer {
  name: "block1-conv2"
  type: "Convolution"
  bottom: "block1-relu1"
  top: "block1-conv2"
  param {
    lr_mult: 1
  }
  param {
    lr_mult: 2
  }
  convolution_param {
    num_output: 16
    pad: 1
    kernel_size: 3
    stride: 1
    weight_filler {
      type: "xavier"
    }
    bias_filler {
      type: "constant"
    }
  }
}
layer {
  name: "block1-bn2"
  type: "BatchNorm"
  bottom: "block1-conv2"
  top: "block1-bn2"
  param {
    lr_mult: 0
    decay_mult: 0
  }
  param {
    lr_mult: 0
    decay_mult: 0
  }
  param {
    lr_mult: 0
    decay_mult: 0
  }
}
layer {
  name: "block1-relu2"
  type: "ReLU"
  bottom: "block1-bn2"
  top: "block1-relu2"
  relu_param {
    negative_slope: 0
  }
}
layer {
  name: "block1-project"
  type: "Convolution"
  bottom: "relu0"
  top: "block1-project"
  param {
    lr_mult: 1
  }
  param {
    lr_mult: 2
  }
  convolution_param {
    num_output: 16
    pad: 1
    kernel_size: 4
    stride: 2
    weight_filler {
      type: "xavier"
    }
    bias_filler {
      type: "constant"
    }
  }
}
layer {
  name: "block1-res1"
  type: "Eltwise"
  bottom: "block1-project"
  bottom: "block1-relu2"
  top: "block1-res1"
  eltwise_param {
    operation: SUM
  }
}
layer {
  name: "block1-conv3"
  type: "Convolution"
  bottom: "block1-res1"
  top: "block1-conv3"
  param {
    lr_mult: 1
  }
  param {
    lr_mult: 2
  }
  convolution_param {
    num_output: 16
    pad: 1
    kernel_size: 3
    stride: 1
    weight_filler {
      type: "xavier"
    }
    bias_filler {
      type: "constant"
    }
  }
}
layer {
  name: "block1-bn3"
  type: "BatchNorm"
  bottom: "block1-conv3"
  top: "block1-bn3"
  param {
    lr_mult: 0
    decay_mult: 0
  }
  param {
    lr_mult: 0
    decay_mult: 0
  }
  param {
    lr_mult: 0
    decay_mult: 0
  }
}
layer {
  name: "block1-relu3"
  type: "ReLU"
  bottom: "block1-bn3"
  top: "block1-relu3"
  relu_param {
    negative_slope: 0
  }
}
layer {
  name: "block1-conv4"
  type: "Convolution"
  bottom: "block1-relu3"
  top: "block1-conv4"
  param {
    lr_mult: 1
  }
  param {
    lr_mult: 2
  }
  convolution_param {
    num_output: 16
    pad: 1
    kernel_size: 3
    stride: 1
    weight_filler {
      type: "xavier"
    }
    bias_filler {
      type: "constant"
    }
  }
}
layer {
  name: "block1-bn4"
  type: "BatchNorm"
  bottom: "block1-conv4"
  top: "block1-bn4"
  param {
    lr_mult: 0
    decay_mult: 0
  }
  param {
    lr_mult: 0
    decay_mult: 0
  }
  param {
    lr_mult: 0
    decay_mult: 0
  }
}
layer {
  name: "block1-relu4"
  type: "ReLU"
  bottom: "block1-bn4"
  top: "block1-relu4"
  relu_param {
    negative_slope: 0
  }
}
layer {
  name: "block1-res2"
  type: "Eltwise"
  bottom: "block1-res1"
  bottom: "block1-relu4"
  top: "block1-res2"
  eltwise_param {
    operation: SUM
  }
}
layer {
  name: "block1-conv5"
  type: "Convolution"
  bottom: "block1-res2"
  top: "block1-conv5"
  param {
    lr_mult: 1
  }
  param {
    lr_mult: 2
  }
  convolution_param {
    num_output: 16
    pad: 1
    kernel_size: 3
    stride: 1
    weight_filler {
      type: "xavier"
    }
    bias_filler {
      type: "constant"
    }
  }
}
layer {
  name: "block1-bn5"
  type: "BatchNorm"
  bottom: "block1-conv5"
  top: "block1-bn5"
  param {
    lr_mult: 0
    decay_mult: 0
  }
  param {
    lr_mult: 0
    decay_mult: 0
  }
  param {
    lr_mult: 0
    decay_mult: 0
  }
}
layer {
  name: "block1-relu5"
  type: "ReLU"
  bottom: "block1-bn5"
  top: "block1-relu5"
  relu_param {
    negative_slope: 0
  }
}
layer {
  name: "block1-conv6"
  type: "Convolution"
  bottom: "block1-relu5"
  top: "block1-conv6"
  param {
    lr_mult: 1
  }
  param {
    lr_mult: 2
  }
  convolution_param {
    num_output: 16
    pad: 1
    kernel_size: 3
    stride: 1
    weight_filler {
      type: "xavier"
    }
    bias_filler {
      type: "constant"
    }
  }
}
layer {
  name: "block1-bn6"
  type: "BatchNorm"
  bottom: "block1-conv6"
  top: "block1-bn6"
  param {
    lr_mult: 0
    decay_mult: 0
  }
  param {
    lr_mult: 0
    decay_mult: 0
  }
  param {
    lr_mult: 0
    decay_mult: 0
  }
}
layer {
  name: "block1-relu6"
  type: "ReLU"
  bottom: "block1-bn6"
  top: "block1-relu6"
  relu_param {
    negative_slope: 0
  }
}
layer {
  name: "block1-res3"
  type: "Eltwise"
  bottom: "block1-res2"
  bottom: "block1-relu6"
  top: "block1-res3"
  eltwise_param {
    operation: SUM
  }
}
layer {
  name: "block2-conv1"
  type: "Convolution"
  bottom: "block1-res3"
  top: "block2-conv1"
  param {
    lr_mult: 1
  }
  param {
    lr_mult: 2
  }
  convolution_param {
    num_output: 32
    pad: 1
    kernel_size: 3
    stride: 2
    weight_filler {
      type: "xavier"
    }
    bias_filler {
      type: "constant"
    }
  }
}
layer {
  name: "block2-bn1"
  type: "BatchNorm"
  bottom: "block2-conv1"
  top: "block2-bn1"
  param {
    lr_mult: 0
    decay_mult: 0
  }
  param {
    lr_mult: 0
    decay_mult: 0
  }
  param {
    lr_mult: 0
    decay_mult: 0
  }
}
layer {
  name: "block2-relu1"
  type: "ReLU"
  bottom: "block2-bn1"
  top: "block2-relu1"
  relu_param {
    negative_slope: 0
  }
}
layer {
  name: "block2-conv2"
  type: "Convolution"
  bottom: "block2-relu1"
  top: "block2-conv2"
  param {
    lr_mult: 1
  }
  param {
    lr_mult: 2
  }
  convolution_param {
    num_output: 32
    pad: 1
    kernel_size: 3
    stride: 1
    weight_filler {
      type: "xavier"
    }
    bias_filler {
      type: "constant"
    }
  }
}
layer {
  name: "block2-bn2"
  type: "BatchNorm"
  bottom: "block2-conv2"
  top: "block2-bn2"
  param {
    lr_mult: 0
    decay_mult: 0
  }
  param {
    lr_mult: 0
    decay_mult: 0
  }
  param {
    lr_mult: 0
    decay_mult: 0
  }
}
layer {
  name: "block2-relu2"
  type: "ReLU"
  bottom: "block2-bn2"
  top: "block2-relu2"
  relu_param {
    negative_slope: 0
  }
}
layer {
  name: "block2-project"
  type: "Convolution"
  bottom: "block1-res3"
  top: "block2-project"
  param {
    lr_mult: 1
  }
  param {
    lr_mult: 2
  }
  convolution_param {
    num_output: 32
    pad: 1
    kernel_size: 4
    stride: 2
    weight_filler {
      type: "xavier"
    }
    bias_filler {
      type: "constant"
    }
  }
}
layer {
  name: "block2-res1"
  type: "Eltwise"
  bottom: "block2-project"
  bottom: "block2-relu2"
  top: "block2-res1"
  eltwise_param {
    operation: SUM
  }
}
layer {
  name: "block2-conv3"
  type: "Convolution"
  bottom: "block2-res1"
  top: "block2-conv3"
  param {
    lr_mult: 1
  }
  param {
    lr_mult: 2
  }
  convolution_param {
    num_output: 32
    pad: 1
    kernel_size: 3
    stride: 1
    weight_filler {
      type: "xavier"
    }
    bias_filler {
      type: "constant"
    }
  }
}
layer {
  name: "block2-bn3"
  type: "BatchNorm"
  bottom: "block2-conv3"
  top: "block2-bn3"
  param {
    lr_mult: 0
    decay_mult: 0
  }
  param {
    lr_mult: 0
    decay_mult: 0
  }
  param {
    lr_mult: 0
    decay_mult: 0
  }
}
layer {
  name: "block2-relu3"
  type: "ReLU"
  bottom: "block2-bn3"
  top: "block2-relu3"
  relu_param {
    negative_slope: 0
  }
}
layer {
  name: "block2-conv4"
  type: "Convolution"
  bottom: "block2-relu3"
  top: "block2-conv4"
  param {
    lr_mult: 1
  }
  param {
    lr_mult: 2
  }
  convolution_param {
    num_output: 32
    pad: 1
    kernel_size: 3
    stride: 1
    weight_filler {
      type: "xavier"
    }
    bias_filler {
      type: "constant"
    }
  }
}
layer {
  name: "block2-bn4"
  type: "BatchNorm"
  bottom: "block2-conv4"
  top: "block2-bn4"
  param {
    lr_mult: 0
    decay_mult: 0
  }
  param {
    lr_mult: 0
    decay_mult: 0
  }
  param {
    lr_mult: 0
    decay_mult: 0
  }
}
layer {
  name: "block2-relu4"
  type: "ReLU"
  bottom: "block2-bn4"
  top: "block2-relu4"
  relu_param {
    negative_slope: 0
  }
}
layer {
  name: "block2-res2"
  type: "Eltwise"
  bottom: "block2-res1"
  bottom: "block2-relu4"
  top: "block2-res2"
  eltwise_param {
    operation: SUM
  }
}
layer {
  name: "block2-conv5"
  type: "Convolution"
  bottom: "block2-res2"
  top: "block2-conv5"
  param {
    lr_mult: 1
  }
  param {
    lr_mult: 2
  }
  convolution_param {
    num_output: 32
    pad: 1
    kernel_size: 3
    stride: 1
    weight_filler {
      type: "xavier"
    }
    bias_filler {
      type: "constant"
    }
  }
}
layer {
  name: "block2-bn5"
  type: "BatchNorm"
  bottom: "block2-conv5"
  top: "block2-bn5"
  param {
    lr_mult: 0
    decay_mult: 0
  }
  param {
    lr_mult: 0
    decay_mult: 0
  }
  param {
    lr_mult: 0
    decay_mult: 0
  }
}
layer {
  name: "block2-relu5"
  type: "ReLU"
  bottom: "block2-bn5"
  top: "block2-relu5"
  relu_param {
    negative_slope: 0
  }
}
layer {
  name: "block2-conv6"
  type: "Convolution"
  bottom: "block2-relu5"
  top: "block2-conv6"
  param {
    lr_mult: 1
  }
  param {
    lr_mult: 2
  }
  convolution_param {
    num_output: 32
    pad: 1
    kernel_size: 3
    stride: 1
    weight_filler {
      type: "xavier"
    }
    bias_filler {
      type: "constant"
    }
  }
}
layer {
  name: "block2-bn6"
  type: "BatchNorm"
  bottom: "block2-conv6"
  top: "block2-bn6"
  param {
    lr_mult: 0
    decay_mult: 0
  }
  param {
    lr_mult: 0
    decay_mult: 0
  }
  param {
    lr_mult: 0
    decay_mult: 0
  }
}
layer {
  name: "block2-relu6"
  type: "ReLU"
  bottom: "block2-bn6"
  top: "block2-relu6"
  relu_param {
    negative_slope: 0
  }
}
layer {
  name: "block2-res3"
  type: "Eltwise"
  bottom: "block2-res2"
  bottom: "block2-relu6"
  top: "block2-res3"
  eltwise_param {
    operation: SUM
  }
}
layer {
  name: "block3-conv1"
  type: "Convolution"
  bottom: "block2-res3"
  top: "block3-conv1"
  param {
    lr_mult: 1
  }
  param {
    lr_mult: 2
  }
  convolution_param {
    num_output: 64
    pad: 1
    kernel_size: 3
    stride: 2
    weight_filler {
      type: "xavier"
    }
    bias_filler {
      type: "constant"
    }
  }
}
layer {
  name: "block3-bn1"
  type: "BatchNorm"
  bottom: "block3-conv1"
  top: "block3-bn1"
  param {
    lr_mult: 0
    decay_mult: 0
  }
  param {
    lr_mult: 0
    decay_mult: 0
  }
  param {
    lr_mult: 0
    decay_mult: 0
  }
}
layer {
  name: "block3-relu1"
  type: "ReLU"
  bottom: "block3-bn1"
  top: "block3-relu1"
  relu_param {
    negative_slope: 0
  }
}
layer {
  name: "block3-conv2"
  type: "Convolution"
  bottom: "block3-relu1"
  top: "block3-conv2"
  param {
    lr_mult: 1
  }
  param {
    lr_mult: 2
  }
  convolution_param {
    num_output: 64
    pad: 1
    kernel_size: 3
    stride: 1
    weight_filler {
      type: "xavier"
    }
    bias_filler {
      type: "constant"
    }
  }
}
layer {
  name: "block3-bn2"
  type: "BatchNorm"
  bottom: "block3-conv2"
  top: "block3-bn2"
  param {
    lr_mult: 0
    decay_mult: 0
  }
  param {
    lr_mult: 0
    decay_mult: 0
  }
  param {
    lr_mult: 0
    decay_mult: 0
  }
}
layer {
  name: "block3-relu2"
  type: "ReLU"
  bottom: "block3-bn2"
  top: "block3-relu2"
  relu_param {
    negative_slope: 0
  }
}
layer {
  name: "block3-project"
  type: "Convolution"
  bottom: "block2-res3"
  top: "block3-project"
  param {
    lr_mult: 1
  }
  param {
    lr_mult: 2
  }
  convolution_param {
    num_output: 64
    pad: 1
    kernel_size: 4
    stride: 2
    weight_filler {
      type: "xavier"
    }
    bias_filler {
      type: "constant"
    }
  }
}
layer {
  name: "block3-res1"
  type: "Eltwise"
  bottom: "block3-project"
  bottom: "block3-relu2"
  top: "block3-res1"
  eltwise_param {
    operation: SUM
  }
}
layer {
  name: "block3-conv3"
  type: "Convolution"
  bottom: "block3-res1"
  top: "block3-conv3"
  param {
    lr_mult: 1
  }
  param {
    lr_mult: 2
  }
  convolution_param {
    num_output: 64
    pad: 1
    kernel_size: 3
    stride: 1
    weight_filler {
      type: "xavier"
    }
    bias_filler {
      type: "constant"
    }
  }
}
layer {
  name: "block3-bn3"
  type: "BatchNorm"
  bottom: "block3-conv3"
  top: "block3-bn3"
  param {
    lr_mult: 0
    decay_mult: 0
  }
  param {
    lr_mult: 0
    decay_mult: 0
  }
  param {
    lr_mult: 0
    decay_mult: 0
  }
}
layer {
  name: "block3-relu3"
  type: "ReLU"
  bottom: "block3-bn3"
  top: "block3-relu3"
  relu_param {
    negative_slope: 0
  }
}
layer {
  name: "block3-conv4"
  type: "Convolution"
  bottom: "block3-relu3"
  top: "block3-conv4"
  param {
    lr_mult: 1
  }
  param {
    lr_mult: 2
  }
  convolution_param {
    num_output: 64
    pad: 1
    kernel_size: 3
    stride: 1
    weight_filler {
      type: "xavier"
    }
    bias_filler {
      type: "constant"
    }
  }
}
layer {
  name: "block3-bn4"
  type: "BatchNorm"
  bottom: "block3-conv4"
  top: "block3-bn4"
  param {
    lr_mult: 0
    decay_mult: 0
  }
  param {
    lr_mult: 0
    decay_mult: 0
  }
  param {
    lr_mult: 0
    decay_mult: 0
  }
}
layer {
  name: "block3-relu4"
  type: "ReLU"
  bottom: "block3-bn4"
  top: "block3-relu4"
  relu_param {
    negative_slope: 0
  }
}
layer {
  name: "block3-res2"
  type: "Eltwise"
  bottom: "block3-res1"
  bottom: "block3-relu4"
  top: "block3-res2"
  eltwise_param {
    operation: SUM
  }
}
layer {
  name: "block3-conv5"
  type: "Convolution"
  bottom: "block3-res2"
  top: "block3-conv5"
  param {
    lr_mult: 1
  }
  param {
    lr_mult: 2
  }
  convolution_param {
    num_output: 64
    pad: 1
    kernel_size: 3
    stride: 1
    weight_filler {
      type: "xavier"
    }
    bias_filler {
      type: "constant"
    }
  }
}
layer {
  name: "block3-bn5"
  type: "BatchNorm"
  bottom: "block3-conv5"
  top: "block3-bn5"
  param {
    lr_mult: 0
    decay_mult: 0
  }
  param {
    lr_mult: 0
    decay_mult: 0
  }
  param {
    lr_mult: 0
    decay_mult: 0
  }
}
layer {
  name: "block3-relu5"
  type: "ReLU"
  bottom: "block3-bn5"
  top: "block3-relu5"
  relu_param {
    negative_slope: 0
  }
}
layer {
  name: "block3-conv6"
  type: "Convolution"
  bottom: "block3-relu5"
  top: "block3-conv6"
  param {
    lr_mult: 1
  }
  param {
    lr_mult: 2
  }
  convolution_param {
    num_output: 64
    pad: 1
    kernel_size: 3
    stride: 1
    weight_filler {
      type: "xavier"
    }
    bias_filler {
      type: "constant"
    }
  }
}
layer {
  name: "block3-bn6"
  type: "BatchNorm"
  bottom: "block3-conv6"
  top: "block3-bn6"
  param {
    lr_mult: 0
    decay_mult: 0
  }
  param {
    lr_mult: 0
    decay_mult: 0
  }
  param {
    lr_mult: 0
    decay_mult: 0
  }
}
layer {
  name: "block3-relu6"
  type: "ReLU"
  bottom: "block3-bn6"
  top: "block3-relu6"
  relu_param {
    negative_slope: 0
  }
}
layer {
  name: "block3-res3"
  type: "Eltwise"
  bottom: "block3-res2"
  bottom: "block3-relu6"
  top: "block3-res3"
  eltwise_param {
    operation: SUM
  }
}
layer {
  name: "block4-conv1"
  type: "Convolution"
  bottom: "block3-res3"
  top: "block4-conv1"
  param {
    lr_mult: 1
  }
  param {
    lr_mult: 2
  }
  convolution_param {
    num_output: 128
    pad: 1
    kernel_size: 3
    stride: 2
    weight_filler {
      type: "xavier"
    }
    bias_filler {
      type: "constant"
    }
  }
}
layer {
  name: "block4-bn1"
  type: "BatchNorm"
  bottom: "block4-conv1"
  top: "block4-bn1"
  param {
    lr_mult: 0
    decay_mult: 0
  }
  param {
    lr_mult: 0
    decay_mult: 0
  }
  param {
    lr_mult: 0
    decay_mult: 0
  }
}
layer {
  name: "block4-relu1"
  type: "ReLU"
  bottom: "block4-bn1"
  top: "block4-relu1"
  relu_param {
    negative_slope: 0
  }
}
layer {
  name: "block4-conv2"
  type: "Convolution"
  bottom: "block4-relu1"
  top: "block4-conv2"
  param {
    lr_mult: 1
  }
  param {
    lr_mult: 2
  }
  convolution_param {
    num_output: 128
    pad: 1
    kernel_size: 3
    stride: 1
    weight_filler {
      type: "xavier"
    }
    bias_filler {
      type: "constant"
    }
  }
}
layer {
  name: "block4-bn2"
  type: "BatchNorm"
  bottom: "block4-conv2"
  top: "block4-bn2"
  param {
    lr_mult: 0
    decay_mult: 0
  }
  param {
    lr_mult: 0
    decay_mult: 0
  }
  param {
    lr_mult: 0
    decay_mult: 0
  }
}
layer {
  name: "block4-relu2"
  type: "ReLU"
  bottom: "block4-bn2"
  top: "block4-relu2"
  relu_param {
    negative_slope: 0
  }
}
layer {
  name: "block4-project"
  type: "Convolution"
  bottom: "block3-res3"
  top: "block4-project"
  param {
    lr_mult: 1
  }
  param {
    lr_mult: 2
  }
  convolution_param {
    num_output: 128
    pad: 1
    kernel_size: 4
    stride: 2
    weight_filler {
      type: "xavier"
    }
    bias_filler {
      type: "constant"
    }
  }
}
layer {
  name: "block4-res1"
  type: "Eltwise"
  bottom: "block4-project"
  bottom: "block4-relu2"
  top: "block4-res1"
  eltwise_param {
    operation: SUM
  }
}
layer {
  name: "block4-conv3"
  type: "Convolution"
  bottom: "block4-res1"
  top: "block4-conv3"
  param {
    lr_mult: 1
  }
  param {
    lr_mult: 2
  }
  convolution_param {
    num_output: 128
    pad: 1
    kernel_size: 3
    stride: 1
    weight_filler {
      type: "xavier"
    }
    bias_filler {
      type: "constant"
    }
  }
}
layer {
  name: "block4-bn3"
  type: "BatchNorm"
  bottom: "block4-conv3"
  top: "block4-bn3"
  param {
    lr_mult: 0
    decay_mult: 0
  }
  param {
    lr_mult: 0
    decay_mult: 0
  }
  param {
    lr_mult: 0
    decay_mult: 0
  }
}
layer {
  name: "block4-relu3"
  type: "ReLU"
  bottom: "block4-bn3"
  top: "block4-relu3"
  relu_param {
    negative_slope: 0
  }
}
layer {
  name: "block4-conv4"
  type: "Convolution"
  bottom: "block4-relu3"
  top: "block4-conv4"
  param {
    lr_mult: 1
  }
  param {
    lr_mult: 2
  }
  convolution_param {
    num_output: 128
    pad: 1
    kernel_size: 3
    stride: 1
    weight_filler {
      type: "xavier"
    }
    bias_filler {
      type: "constant"
    }
  }
}
layer {
  name: "block4-bn4"
  type: "BatchNorm"
  bottom: "block4-conv4"
  top: "block4-bn4"
  param {
    lr_mult: 0
    decay_mult: 0
  }
  param {
    lr_mult: 0
    decay_mult: 0
  }
  param {
    lr_mult: 0
    decay_mult: 0
  }
}
layer {
  name: "block4-relu4"
  type: "ReLU"
  bottom: "block4-bn4"
  top: "block4-relu4"
  relu_param {
    negative_slope: 0
  }
}
layer {
  name: "block4-res2"
  type: "Eltwise"
  bottom: "block4-res1"
  bottom: "block4-relu4"
  top: "block4-res2"
  eltwise_param {
    operation: SUM
  }
}
layer {
  name: "block4-conv5"
  type: "Convolution"
  bottom: "block4-res2"
  top: "block4-conv5"
  param {
    lr_mult: 1
  }
  param {
    lr_mult: 2
  }
  convolution_param {
    num_output: 128
    pad: 1
    kernel_size: 3
    stride: 1
    weight_filler {
      type: "xavier"
    }
    bias_filler {
      type: "constant"
    }
  }
}
layer {
  name: "block4-bn5"
  type: "BatchNorm"
  bottom: "block4-conv5"
  top: "block4-bn5"
  param {
    lr_mult: 0
    decay_mult: 0
  }
  param {
    lr_mult: 0
    decay_mult: 0
  }
  param {
    lr_mult: 0
    decay_mult: 0
  }
}
layer {
  name: "block4-relu5"
  type: "ReLU"
  bottom: "block4-bn5"
  top: "block4-relu5"
  relu_param {
    negative_slope: 0
  }
}
layer {
  name: "block4-conv6"
  type: "Convolution"
  bottom: "block4-relu5"
  top: "block4-conv6"
  param {
    lr_mult: 1
  }
  param {
    lr_mult: 2
  }
  convolution_param {
    num_output: 128
    pad: 1
    kernel_size: 3
    stride: 1
    weight_filler {
      type: "xavier"
    }
    bias_filler {
      type: "constant"
    }
  }
}
layer {
  name: "block4-bn6"
  type: "BatchNorm"
  bottom: "block4-conv6"
  top: "block4-bn6"
  param {
    lr_mult: 0
    decay_mult: 0
  }
  param {
    lr_mult: 0
    decay_mult: 0
  }
  param {
    lr_mult: 0
    decay_mult: 0
  }
}
layer {
  name: "block4-relu6"
  type: "ReLU"
  bottom: "block4-bn6"
  top: "block4-relu6"
  relu_param {
    negative_slope: 0
  }
}
layer {
  name: "block4-res3"
  type: "Eltwise"
  bottom: "block4-res2"
  bottom: "block4-relu6"
  top: "block4-res3"
  eltwise_param {
    operation: SUM
  }
}
layer {
  name: "pool"
  type: "Pooling"
  bottom: "block4-res3"
  top: "pool"
  pooling_param {
    pool: AVE
    kernel_size: 2
    stride: 2
  }
}
layer {
  name: "dropout1"
  type: "Dropout"
  bottom: "pool"
  top: "dropout1"
  dropout_param {
    dropout_ratio: 0.4
  }
}
layer {
  name: "prob"
  type: "InnerProduct"
  bottom: "dropout1"
  top: "prob"
  param {
    lr_mult: 1
    decay_mult: 1
  }
  param {
    lr_mult: 1
    decay_mult: 0
  }
  inner_product_param {
    num_output: 10
    weight_filler {
      type: "gaussian"
      std: 0.01
    }
    bias_filler {
      type: "constant"
    }
  }
}
layer {
  name: "loss"
  type: "SoftmaxWithLoss"
  bottom: "prob"
  bottom: "label"
  top: "loss"
  softmax_param {
    label_smooth: true
    label_smooth_factor: 0.001
  }
}
I0503 14:53:15.313740 354735552 layer_factory.hpp:77] Creating layer cifar
I0503 14:53:15.314074 354735552 db_lmdb.cpp:35] Opened lmdb examples/cifar10/cifar10_train_lmdb
I0503 14:53:15.314136 354735552 net.cpp:86] Creating Layer cifar
I0503 14:53:15.314146 354735552 net.cpp:382] cifar -> data
I0503 14:53:15.314172 354735552 net.cpp:382] cifar -> label
I0503 14:53:15.314185 354735552 data_transformer.cpp:25] Loading mean file from: examples/cifar10/mean.binaryproto
I0503 14:53:15.314299 354735552 data_layer.cpp:45] output data size: 100,3,32,32
I0503 14:53:15.316854 354735552 net.cpp:124] Setting up cifar
I0503 14:53:15.316866 354735552 net.cpp:131] Top shape: 100 3 32 32 (307200)
I0503 14:53:15.316875 354735552 net.cpp:131] Top shape: 100 (100)
I0503 14:53:15.316881 354735552 net.cpp:139] Memory required for data: 1229200
I0503 14:53:15.316890 354735552 layer_factory.hpp:77] Creating layer conv0
I0503 14:53:15.316902 354735552 net.cpp:86] Creating Layer conv0
I0503 14:53:15.316907 354735552 net.cpp:408] conv0 <- data
I0503 14:53:15.316915 354735552 net.cpp:382] conv0 -> conv0
I0503 14:53:15.316979 354735552 net.cpp:124] Setting up conv0
I0503 14:53:15.316987 354735552 net.cpp:131] Top shape: 100 8 16 16 (204800)
I0503 14:53:15.317037 354735552 net.cpp:139] Memory required for data: 2048400
I0503 14:53:15.317059 354735552 layer_factory.hpp:77] Creating layer bn0
I0503 14:53:15.317072 354735552 net.cpp:86] Creating Layer bn0
I0503 14:53:15.317085 354735552 net.cpp:408] bn0 <- conv0
I0503 14:53:15.317096 354735552 net.cpp:382] bn0 -> bn0
I0503 14:53:15.317122 354735552 net.cpp:124] Setting up bn0
I0503 14:53:15.317129 354735552 net.cpp:131] Top shape: 100 8 16 16 (204800)
I0503 14:53:15.317137 354735552 net.cpp:139] Memory required for data: 2867600
I0503 14:53:15.317147 354735552 layer_factory.hpp:77] Creating layer relu0
I0503 14:53:15.317157 354735552 net.cpp:86] Creating Layer relu0
I0503 14:53:15.317162 354735552 net.cpp:408] relu0 <- bn0
I0503 14:53:15.317167 354735552 net.cpp:382] relu0 -> relu0
I0503 14:53:15.317178 354735552 net.cpp:124] Setting up relu0
I0503 14:53:15.317183 354735552 net.cpp:131] Top shape: 100 8 16 16 (204800)
I0503 14:53:15.317188 354735552 net.cpp:139] Memory required for data: 3686800
I0503 14:53:15.317193 354735552 layer_factory.hpp:77] Creating layer relu0_relu0_0_split
I0503 14:53:15.317200 354735552 net.cpp:86] Creating Layer relu0_relu0_0_split
I0503 14:53:15.317553 354735552 net.cpp:408] relu0_relu0_0_split <- relu0
I0503 14:53:15.317571 354735552 net.cpp:382] relu0_relu0_0_split -> relu0_relu0_0_split_0
I0503 14:53:15.317585 354735552 net.cpp:382] relu0_relu0_0_split -> relu0_relu0_0_split_1
I0503 14:53:15.317595 354735552 net.cpp:124] Setting up relu0_relu0_0_split
I0503 14:53:15.317600 354735552 net.cpp:131] Top shape: 100 8 16 16 (204800)
I0503 14:53:15.317606 354735552 net.cpp:131] Top shape: 100 8 16 16 (204800)
I0503 14:53:15.317612 354735552 net.cpp:139] Memory required for data: 5325200
I0503 14:53:15.317618 354735552 layer_factory.hpp:77] Creating layer block1-conv1
I0503 14:53:15.317627 354735552 net.cpp:86] Creating Layer block1-conv1
I0503 14:53:15.317633 354735552 net.cpp:408] block1-conv1 <- relu0_relu0_0_split_0
I0503 14:53:15.317641 354735552 net.cpp:382] block1-conv1 -> block1-conv1
I0503 14:53:15.317679 354735552 net.cpp:124] Setting up block1-conv1
I0503 14:53:15.317685 354735552 net.cpp:131] Top shape: 100 16 8 8 (102400)
I0503 14:53:15.317731 354735552 net.cpp:139] Memory required for data: 5734800
I0503 14:53:15.317741 354735552 layer_factory.hpp:77] Creating layer block1-bn1
I0503 14:53:15.317750 354735552 net.cpp:86] Creating Layer block1-bn1
I0503 14:53:15.317755 354735552 net.cpp:408] block1-bn1 <- block1-conv1
I0503 14:53:15.317762 354735552 net.cpp:382] block1-bn1 -> block1-bn1
I0503 14:53:15.317781 354735552 net.cpp:124] Setting up block1-bn1
I0503 14:53:15.317787 354735552 net.cpp:131] Top shape: 100 16 8 8 (102400)
I0503 14:53:15.317793 354735552 net.cpp:139] Memory required for data: 6144400
I0503 14:53:15.317802 354735552 layer_factory.hpp:77] Creating layer block1-relu1
I0503 14:53:15.317812 354735552 net.cpp:86] Creating Layer block1-relu1
I0503 14:53:15.317817 354735552 net.cpp:408] block1-relu1 <- block1-bn1
I0503 14:53:15.317823 354735552 net.cpp:382] block1-relu1 -> block1-relu1
I0503 14:53:15.317831 354735552 net.cpp:124] Setting up block1-relu1
I0503 14:53:15.317836 354735552 net.cpp:131] Top shape: 100 16 8 8 (102400)
I0503 14:53:15.317842 354735552 net.cpp:139] Memory required for data: 6554000
I0503 14:53:15.317847 354735552 layer_factory.hpp:77] Creating layer block1-conv2
I0503 14:53:15.317860 354735552 net.cpp:86] Creating Layer block1-conv2
I0503 14:53:15.317865 354735552 net.cpp:408] block1-conv2 <- block1-relu1
I0503 14:53:15.317873 354735552 net.cpp:382] block1-conv2 -> block1-conv2
I0503 14:53:15.318043 354735552 net.cpp:124] Setting up block1-conv2
I0503 14:53:15.318054 354735552 net.cpp:131] Top shape: 100 16 8 8 (102400)
I0503 14:53:15.318063 354735552 net.cpp:139] Memory required for data: 6963600
I0503 14:53:15.318069 354735552 layer_factory.hpp:77] Creating layer block1-bn2
I0503 14:53:15.318078 354735552 net.cpp:86] Creating Layer block1-bn2
I0503 14:53:15.318083 354735552 net.cpp:408] block1-bn2 <- block1-conv2
I0503 14:53:15.318135 354735552 net.cpp:382] block1-bn2 -> block1-bn2
I0503 14:53:15.318156 354735552 net.cpp:124] Setting up block1-bn2
I0503 14:53:15.318161 354735552 net.cpp:131] Top shape: 100 16 8 8 (102400)
I0503 14:53:15.318167 354735552 net.cpp:139] Memory required for data: 7373200
I0503 14:53:15.318174 354735552 layer_factory.hpp:77] Creating layer block1-relu2
I0503 14:53:15.318181 354735552 net.cpp:86] Creating Layer block1-relu2
I0503 14:53:15.318188 354735552 net.cpp:408] block1-relu2 <- block1-bn2
I0503 14:53:15.318197 354735552 net.cpp:382] block1-relu2 -> block1-relu2
I0503 14:53:15.318205 354735552 net.cpp:124] Setting up block1-relu2
I0503 14:53:15.318210 354735552 net.cpp:131] Top shape: 100 16 8 8 (102400)
I0503 14:53:15.318217 354735552 net.cpp:139] Memory required for data: 7782800
I0503 14:53:15.318222 354735552 layer_factory.hpp:77] Creating layer block1-project
I0503 14:53:15.318230 354735552 net.cpp:86] Creating Layer block1-project
I0503 14:53:15.318235 354735552 net.cpp:408] block1-project <- relu0_relu0_0_split_1
I0503 14:53:15.318243 354735552 net.cpp:382] block1-project -> block1-project
I0503 14:53:15.318285 354735552 net.cpp:124] Setting up block1-project
I0503 14:53:15.318291 354735552 net.cpp:131] Top shape: 100 16 8 8 (102400)
I0503 14:53:15.318297 354735552 net.cpp:139] Memory required for data: 8192400
I0503 14:53:15.318307 354735552 layer_factory.hpp:77] Creating layer block1-res1
I0503 14:53:15.318317 354735552 net.cpp:86] Creating Layer block1-res1
I0503 14:53:15.318322 354735552 net.cpp:408] block1-res1 <- block1-project
I0503 14:53:15.318328 354735552 net.cpp:408] block1-res1 <- block1-relu2
I0503 14:53:15.318334 354735552 net.cpp:382] block1-res1 -> block1-res1
I0503 14:53:15.318359 354735552 net.cpp:124] Setting up block1-res1
I0503 14:53:15.318364 354735552 net.cpp:131] Top shape: 100 16 8 8 (102400)
I0503 14:53:15.318372 354735552 net.cpp:139] Memory required for data: 8602000
I0503 14:53:15.318377 354735552 layer_factory.hpp:77] Creating layer block1-res1_block1-res1_0_split
I0503 14:53:15.318384 354735552 net.cpp:86] Creating Layer block1-res1_block1-res1_0_split
I0503 14:53:15.318389 354735552 net.cpp:408] block1-res1_block1-res1_0_split <- block1-res1
I0503 14:53:15.318395 354735552 net.cpp:382] block1-res1_block1-res1_0_split -> block1-res1_block1-res1_0_split_0
I0503 14:53:15.318471 354735552 net.cpp:382] block1-res1_block1-res1_0_split -> block1-res1_block1-res1_0_split_1
I0503 14:53:15.318490 354735552 net.cpp:124] Setting up block1-res1_block1-res1_0_split
I0503 14:53:15.318495 354735552 net.cpp:131] Top shape: 100 16 8 8 (102400)
I0503 14:53:15.318502 354735552 net.cpp:131] Top shape: 100 16 8 8 (102400)
I0503 14:53:15.318508 354735552 net.cpp:139] Memory required for data: 9421200
I0503 14:53:15.318514 354735552 layer_factory.hpp:77] Creating layer block1-conv3
I0503 14:53:15.318529 354735552 net.cpp:86] Creating Layer block1-conv3
I0503 14:53:15.318536 354735552 net.cpp:408] block1-conv3 <- block1-res1_block1-res1_0_split_0
I0503 14:53:15.318547 354735552 net.cpp:382] block1-conv3 -> block1-conv3
I0503 14:53:15.318588 354735552 net.cpp:124] Setting up block1-conv3
I0503 14:53:15.318594 354735552 net.cpp:131] Top shape: 100 16 8 8 (102400)
I0503 14:53:15.318601 354735552 net.cpp:139] Memory required for data: 9830800
I0503 14:53:15.318608 354735552 layer_factory.hpp:77] Creating layer block1-bn3
I0503 14:53:15.318617 354735552 net.cpp:86] Creating Layer block1-bn3
I0503 14:53:15.318622 354735552 net.cpp:408] block1-bn3 <- block1-conv3
I0503 14:53:15.318632 354735552 net.cpp:382] block1-bn3 -> block1-bn3
I0503 14:53:15.318647 354735552 net.cpp:124] Setting up block1-bn3
I0503 14:53:15.318652 354735552 net.cpp:131] Top shape: 100 16 8 8 (102400)
I0503 14:53:15.318658 354735552 net.cpp:139] Memory required for data: 10240400
I0503 14:53:15.318665 354735552 layer_factory.hpp:77] Creating layer block1-relu3
I0503 14:53:15.318678 354735552 net.cpp:86] Creating Layer block1-relu3
I0503 14:53:15.318684 354735552 net.cpp:408] block1-relu3 <- block1-bn3
I0503 14:53:15.318733 354735552 net.cpp:382] block1-relu3 -> block1-relu3
I0503 14:53:15.318744 354735552 net.cpp:124] Setting up block1-relu3
I0503 14:53:15.318749 354735552 net.cpp:131] Top shape: 100 16 8 8 (102400)
I0503 14:53:15.318755 354735552 net.cpp:139] Memory required for data: 10650000
I0503 14:53:15.318761 354735552 layer_factory.hpp:77] Creating layer block1-conv4
I0503 14:53:15.318770 354735552 net.cpp:86] Creating Layer block1-conv4
I0503 14:53:15.318775 354735552 net.cpp:408] block1-conv4 <- block1-relu3
I0503 14:53:15.318785 354735552 net.cpp:382] block1-conv4 -> block1-conv4
I0503 14:53:15.318827 354735552 net.cpp:124] Setting up block1-conv4
I0503 14:53:15.318833 354735552 net.cpp:131] Top shape: 100 16 8 8 (102400)
I0503 14:53:15.318840 354735552 net.cpp:139] Memory required for data: 11059600
I0503 14:53:15.318846 354735552 layer_factory.hpp:77] Creating layer block1-bn4
I0503 14:53:15.318856 354735552 net.cpp:86] Creating Layer block1-bn4
I0503 14:53:15.318862 354735552 net.cpp:408] block1-bn4 <- block1-conv4
I0503 14:53:15.318868 354735552 net.cpp:382] block1-bn4 -> block1-bn4
I0503 14:53:15.318886 354735552 net.cpp:124] Setting up block1-bn4
I0503 14:53:15.318892 354735552 net.cpp:131] Top shape: 100 16 8 8 (102400)
I0503 14:53:15.318897 354735552 net.cpp:139] Memory required for data: 11469200
I0503 14:53:15.318904 354735552 layer_factory.hpp:77] Creating layer block1-relu4
I0503 14:53:15.318913 354735552 net.cpp:86] Creating Layer block1-relu4
I0503 14:53:15.318918 354735552 net.cpp:408] block1-relu4 <- block1-bn4
I0503 14:53:15.318924 354735552 net.cpp:382] block1-relu4 -> block1-relu4
I0503 14:53:15.318933 354735552 net.cpp:124] Setting up block1-relu4
I0503 14:53:15.318948 354735552 net.cpp:131] Top shape: 100 16 8 8 (102400)
I0503 14:53:15.318954 354735552 net.cpp:139] Memory required for data: 11878800
I0503 14:53:15.318959 354735552 layer_factory.hpp:77] Creating layer block1-res2
I0503 14:53:15.318966 354735552 net.cpp:86] Creating Layer block1-res2
I0503 14:53:15.318971 354735552 net.cpp:408] block1-res2 <- block1-res1_block1-res1_0_split_1
I0503 14:53:15.318977 354735552 net.cpp:408] block1-res2 <- block1-relu4
I0503 14:53:15.318985 354735552 net.cpp:382] block1-res2 -> block1-res2
I0503 14:53:15.318997 354735552 net.cpp:124] Setting up block1-res2
I0503 14:53:15.319002 354735552 net.cpp:131] Top shape: 100 16 8 8 (102400)
I0503 14:53:15.319010 354735552 net.cpp:139] Memory required for data: 12288400
I0503 14:53:15.319015 354735552 layer_factory.hpp:77] Creating layer block1-res2_block1-res2_0_split
I0503 14:53:15.319021 354735552 net.cpp:86] Creating Layer block1-res2_block1-res2_0_split
I0503 14:53:15.319026 354735552 net.cpp:408] block1-res2_block1-res2_0_split <- block1-res2
I0503 14:53:15.319108 354735552 net.cpp:382] block1-res2_block1-res2_0_split -> block1-res2_block1-res2_0_split_0
I0503 14:53:15.319133 354735552 net.cpp:382] block1-res2_block1-res2_0_split -> block1-res2_block1-res2_0_split_1
I0503 14:53:15.319147 354735552 net.cpp:124] Setting up block1-res2_block1-res2_0_split
I0503 14:53:15.319157 354735552 net.cpp:131] Top shape: 100 16 8 8 (102400)
I0503 14:53:15.319169 354735552 net.cpp:131] Top shape: 100 16 8 8 (102400)
I0503 14:53:15.319175 354735552 net.cpp:139] Memory required for data: 13107600
I0503 14:53:15.319181 354735552 layer_factory.hpp:77] Creating layer block1-conv5
I0503 14:53:15.319191 354735552 net.cpp:86] Creating Layer block1-conv5
I0503 14:53:15.319198 354735552 net.cpp:408] block1-conv5 <- block1-res2_block1-res2_0_split_0
I0503 14:53:15.319206 354735552 net.cpp:382] block1-conv5 -> block1-conv5
I0503 14:53:15.319258 354735552 net.cpp:124] Setting up block1-conv5
I0503 14:53:15.319265 354735552 net.cpp:131] Top shape: 100 16 8 8 (102400)
I0503 14:53:15.319272 354735552 net.cpp:139] Memory required for data: 13517200
I0503 14:53:15.319279 354735552 layer_factory.hpp:77] Creating layer block1-bn5
I0503 14:53:15.319286 354735552 net.cpp:86] Creating Layer block1-bn5
I0503 14:53:15.319291 354735552 net.cpp:408] block1-bn5 <- block1-conv5
I0503 14:53:15.319298 354735552 net.cpp:382] block1-bn5 -> block1-bn5
I0503 14:53:15.319348 354735552 net.cpp:124] Setting up block1-bn5
I0503 14:53:15.319355 354735552 net.cpp:131] Top shape: 100 16 8 8 (102400)
I0503 14:53:15.319361 354735552 net.cpp:139] Memory required for data: 13926800
I0503 14:53:15.319368 354735552 layer_factory.hpp:77] Creating layer block1-relu5
I0503 14:53:15.319375 354735552 net.cpp:86] Creating Layer block1-relu5
I0503 14:53:15.319380 354735552 net.cpp:408] block1-relu5 <- block1-bn5
I0503 14:53:15.319387 354735552 net.cpp:382] block1-relu5 -> block1-relu5
I0503 14:53:15.319550 354735552 net.cpp:124] Setting up block1-relu5
I0503 14:53:15.319564 354735552 net.cpp:131] Top shape: 100 16 8 8 (102400)
I0503 14:53:15.319577 354735552 net.cpp:139] Memory required for data: 14336400
I0503 14:53:15.319587 354735552 layer_factory.hpp:77] Creating layer block1-conv6
I0503 14:53:15.319604 354735552 net.cpp:86] Creating Layer block1-conv6
I0503 14:53:15.319614 354735552 net.cpp:408] block1-conv6 <- block1-relu5
I0503 14:53:15.319624 354735552 net.cpp:382] block1-conv6 -> block1-conv6
I0503 14:53:15.319680 354735552 net.cpp:124] Setting up block1-conv6
I0503 14:53:15.319691 354735552 net.cpp:131] Top shape: 100 16 8 8 (102400)
I0503 14:53:15.319715 354735552 net.cpp:139] Memory required for data: 14746000
I0503 14:53:15.319725 354735552 layer_factory.hpp:77] Creating layer block1-bn6
I0503 14:53:15.319737 354735552 net.cpp:86] Creating Layer block1-bn6
I0503 14:53:15.319744 354735552 net.cpp:408] block1-bn6 <- block1-conv6
I0503 14:53:15.319754 354735552 net.cpp:382] block1-bn6 -> block1-bn6
I0503 14:53:15.319770 354735552 net.cpp:124] Setting up block1-bn6
I0503 14:53:15.319775 354735552 net.cpp:131] Top shape: 100 16 8 8 (102400)
I0503 14:53:15.319782 354735552 net.cpp:139] Memory required for data: 15155600
I0503 14:53:15.319792 354735552 layer_factory.hpp:77] Creating layer block1-relu6
I0503 14:53:15.319800 354735552 net.cpp:86] Creating Layer block1-relu6
I0503 14:53:15.319806 354735552 net.cpp:408] block1-relu6 <- block1-bn6
I0503 14:53:15.319813 354735552 net.cpp:382] block1-relu6 -> block1-relu6
I0503 14:53:15.319821 354735552 net.cpp:124] Setting up block1-relu6
I0503 14:53:15.319825 354735552 net.cpp:131] Top shape: 100 16 8 8 (102400)
I0503 14:53:15.319831 354735552 net.cpp:139] Memory required for data: 15565200
I0503 14:53:15.319836 354735552 layer_factory.hpp:77] Creating layer block1-res3
I0503 14:53:15.319844 354735552 net.cpp:86] Creating Layer block1-res3
I0503 14:53:15.319849 354735552 net.cpp:408] block1-res3 <- block1-res2_block1-res2_0_split_1
I0503 14:53:15.319854 354735552 net.cpp:408] block1-res3 <- block1-relu6
I0503 14:53:15.319861 354735552 net.cpp:382] block1-res3 -> block1-res3
I0503 14:53:15.319870 354735552 net.cpp:124] Setting up block1-res3
I0503 14:53:15.319875 354735552 net.cpp:131] Top shape: 100 16 8 8 (102400)
I0503 14:53:15.319881 354735552 net.cpp:139] Memory required for data: 15974800
I0503 14:53:15.319886 354735552 layer_factory.hpp:77] Creating layer block1-res3_block1-res3_0_split
I0503 14:53:15.319948 354735552 net.cpp:86] Creating Layer block1-res3_block1-res3_0_split
I0503 14:53:15.319959 354735552 net.cpp:408] block1-res3_block1-res3_0_split <- block1-res3
I0503 14:53:15.319972 354735552 net.cpp:382] block1-res3_block1-res3_0_split -> block1-res3_block1-res3_0_split_0
I0503 14:53:15.319983 354735552 net.cpp:382] block1-res3_block1-res3_0_split -> block1-res3_block1-res3_0_split_1
I0503 14:53:15.319993 354735552 net.cpp:124] Setting up block1-res3_block1-res3_0_split
I0503 14:53:15.319998 354735552 net.cpp:131] Top shape: 100 16 8 8 (102400)
I0503 14:53:15.320005 354735552 net.cpp:131] Top shape: 100 16 8 8 (102400)
I0503 14:53:15.320011 354735552 net.cpp:139] Memory required for data: 16794000
I0503 14:53:15.320016 354735552 layer_factory.hpp:77] Creating layer block2-conv1
I0503 14:53:15.320029 354735552 net.cpp:86] Creating Layer block2-conv1
I0503 14:53:15.320034 354735552 net.cpp:408] block2-conv1 <- block1-res3_block1-res3_0_split_0
I0503 14:53:15.320044 354735552 net.cpp:382] block2-conv1 -> block2-conv1
I0503 14:53:15.320134 354735552 net.cpp:124] Setting up block2-conv1
I0503 14:53:15.320142 354735552 net.cpp:131] Top shape: 100 32 4 4 (51200)
I0503 14:53:15.320456 354735552 net.cpp:139] Memory required for data: 16998800
I0503 14:53:15.320472 354735552 layer_factory.hpp:77] Creating layer block2-bn1
I0503 14:53:15.320480 354735552 net.cpp:86] Creating Layer block2-bn1
I0503 14:53:15.320485 354735552 net.cpp:408] block2-bn1 <- block2-conv1
I0503 14:53:15.320493 354735552 net.cpp:382] block2-bn1 -> block2-bn1
I0503 14:53:15.320514 354735552 net.cpp:124] Setting up block2-bn1
I0503 14:53:15.320520 354735552 net.cpp:131] Top shape: 100 32 4 4 (51200)
I0503 14:53:15.320528 354735552 net.cpp:139] Memory required for data: 17203600
I0503 14:53:15.320534 354735552 layer_factory.hpp:77] Creating layer block2-relu1
I0503 14:53:15.320545 354735552 net.cpp:86] Creating Layer block2-relu1
I0503 14:53:15.320551 354735552 net.cpp:408] block2-relu1 <- block2-bn1
I0503 14:53:15.320557 354735552 net.cpp:382] block2-relu1 -> block2-relu1
I0503 14:53:15.320565 354735552 net.cpp:124] Setting up block2-relu1
I0503 14:53:15.320570 354735552 net.cpp:131] Top shape: 100 32 4 4 (51200)
I0503 14:53:15.320576 354735552 net.cpp:139] Memory required for data: 17408400
I0503 14:53:15.320581 354735552 layer_factory.hpp:77] Creating layer block2-conv2
I0503 14:53:15.320590 354735552 net.cpp:86] Creating Layer block2-conv2
I0503 14:53:15.320595 354735552 net.cpp:408] block2-conv2 <- block2-relu1
I0503 14:53:15.320602 354735552 net.cpp:382] block2-conv2 -> block2-conv2
I0503 14:53:15.320719 354735552 net.cpp:124] Setting up block2-conv2
I0503 14:53:15.320724 354735552 net.cpp:131] Top shape: 100 32 4 4 (51200)
I0503 14:53:15.320731 354735552 net.cpp:139] Memory required for data: 17613200
I0503 14:53:15.320737 354735552 layer_factory.hpp:77] Creating layer block2-bn2
I0503 14:53:15.320747 354735552 net.cpp:86] Creating Layer block2-bn2
I0503 14:53:15.320752 354735552 net.cpp:408] block2-bn2 <- block2-conv2
I0503 14:53:15.320760 354735552 net.cpp:382] block2-bn2 -> block2-bn2
I0503 14:53:15.320776 354735552 net.cpp:124] Setting up block2-bn2
I0503 14:53:15.320781 354735552 net.cpp:131] Top shape: 100 32 4 4 (51200)
I0503 14:53:15.320791 354735552 net.cpp:139] Memory required for data: 17818000
I0503 14:53:15.320802 354735552 layer_factory.hpp:77] Creating layer block2-relu2
I0503 14:53:15.320812 354735552 net.cpp:86] Creating Layer block2-relu2
I0503 14:53:15.320821 354735552 net.cpp:408] block2-relu2 <- block2-bn2
I0503 14:53:15.320833 354735552 net.cpp:382] block2-relu2 -> block2-relu2
I0503 14:53:15.320847 354735552 net.cpp:124] Setting up block2-relu2
I0503 14:53:15.320853 354735552 net.cpp:131] Top shape: 100 32 4 4 (51200)
I0503 14:53:15.320863 354735552 net.cpp:139] Memory required for data: 18022800
I0503 14:53:15.320873 354735552 layer_factory.hpp:77] Creating layer block2-project
I0503 14:53:15.320886 354735552 net.cpp:86] Creating Layer block2-project
I0503 14:53:15.320892 354735552 net.cpp:408] block2-project <- block1-res3_block1-res3_0_split_1
I0503 14:53:15.320900 354735552 net.cpp:382] block2-project -> block2-project
I0503 14:53:15.321005 354735552 net.cpp:124] Setting up block2-project
I0503 14:53:15.321012 354735552 net.cpp:131] Top shape: 100 32 4 4 (51200)
I0503 14:53:15.321022 354735552 net.cpp:139] Memory required for data: 18227600
I0503 14:53:15.321033 354735552 layer_factory.hpp:77] Creating layer block2-res1
I0503 14:53:15.321040 354735552 net.cpp:86] Creating Layer block2-res1
I0503 14:53:15.321048 354735552 net.cpp:408] block2-res1 <- block2-project
I0503 14:53:15.321053 354735552 net.cpp:408] block2-res1 <- block2-relu2
I0503 14:53:15.321060 354735552 net.cpp:382] block2-res1 -> block2-res1
I0503 14:53:15.321069 354735552 net.cpp:124] Setting up block2-res1
I0503 14:53:15.321074 354735552 net.cpp:131] Top shape: 100 32 4 4 (51200)
I0503 14:53:15.321080 354735552 net.cpp:139] Memory required for data: 18432400
I0503 14:53:15.321085 354735552 layer_factory.hpp:77] Creating layer block2-res1_block2-res1_0_split
I0503 14:53:15.321135 354735552 net.cpp:86] Creating Layer block2-res1_block2-res1_0_split
I0503 14:53:15.321146 354735552 net.cpp:408] block2-res1_block2-res1_0_split <- block2-res1
I0503 14:53:15.321161 354735552 net.cpp:382] block2-res1_block2-res1_0_split -> block2-res1_block2-res1_0_split_0
I0503 14:53:15.321177 354735552 net.cpp:382] block2-res1_block2-res1_0_split -> block2-res1_block2-res1_0_split_1
I0503 14:53:15.321197 354735552 net.cpp:124] Setting up block2-res1_block2-res1_0_split
I0503 14:53:15.321207 354735552 net.cpp:131] Top shape: 100 32 4 4 (51200)
I0503 14:53:15.321218 354735552 net.cpp:131] Top shape: 100 32 4 4 (51200)
I0503 14:53:15.321229 354735552 net.cpp:139] Memory required for data: 18842000
I0503 14:53:15.321238 354735552 layer_factory.hpp:77] Creating layer block2-conv3
I0503 14:53:15.321254 354735552 net.cpp:86] Creating Layer block2-conv3
I0503 14:53:15.321264 354735552 net.cpp:408] block2-conv3 <- block2-res1_block2-res1_0_split_0
I0503 14:53:15.321280 354735552 net.cpp:382] block2-conv3 -> block2-conv3
I0503 14:53:15.321425 354735552 net.cpp:124] Setting up block2-conv3
I0503 14:53:15.321435 354735552 net.cpp:131] Top shape: 100 32 4 4 (51200)
I0503 14:53:15.321442 354735552 net.cpp:139] Memory required for data: 19046800
I0503 14:53:15.321451 354735552 layer_factory.hpp:77] Creating layer block2-bn3
I0503 14:53:15.321461 354735552 net.cpp:86] Creating Layer block2-bn3
I0503 14:53:15.321467 354735552 net.cpp:408] block2-bn3 <- block2-conv3
I0503 14:53:15.321475 354735552 net.cpp:382] block2-bn3 -> block2-bn3
I0503 14:53:15.321496 354735552 net.cpp:124] Setting up block2-bn3
I0503 14:53:15.321502 354735552 net.cpp:131] Top shape: 100 32 4 4 (51200)
I0503 14:53:15.321509 354735552 net.cpp:139] Memory required for data: 19251600
I0503 14:53:15.321517 354735552 layer_factory.hpp:77] Creating layer block2-relu3
I0503 14:53:15.321525 354735552 net.cpp:86] Creating Layer block2-relu3
I0503 14:53:15.321532 354735552 net.cpp:408] block2-relu3 <- block2-bn3
I0503 14:53:15.321538 354735552 net.cpp:382] block2-relu3 -> block2-relu3
I0503 14:53:15.321547 354735552 net.cpp:124] Setting up block2-relu3
I0503 14:53:15.321553 354735552 net.cpp:131] Top shape: 100 32 4 4 (51200)
I0503 14:53:15.321560 354735552 net.cpp:139] Memory required for data: 19456400
I0503 14:53:15.321569 354735552 layer_factory.hpp:77] Creating layer block2-conv4
I0503 14:53:15.321583 354735552 net.cpp:86] Creating Layer block2-conv4
I0503 14:53:15.321589 354735552 net.cpp:408] block2-conv4 <- block2-relu3
I0503 14:53:15.321599 354735552 net.cpp:382] block2-conv4 -> block2-conv4
I0503 14:53:15.321729 354735552 net.cpp:124] Setting up block2-conv4
I0503 14:53:15.321740 354735552 net.cpp:131] Top shape: 100 32 4 4 (51200)
I0503 14:53:15.321750 354735552 net.cpp:139] Memory required for data: 19661200
I0503 14:53:15.321758 354735552 layer_factory.hpp:77] Creating layer block2-bn4
I0503 14:53:15.321774 354735552 net.cpp:86] Creating Layer block2-bn4
I0503 14:53:15.321780 354735552 net.cpp:408] block2-bn4 <- block2-conv4
I0503 14:53:15.321792 354735552 net.cpp:382] block2-bn4 -> block2-bn4
I0503 14:53:15.321816 354735552 net.cpp:124] Setting up block2-bn4
I0503 14:53:15.321822 354735552 net.cpp:131] Top shape: 100 32 4 4 (51200)
I0503 14:53:15.321828 354735552 net.cpp:139] Memory required for data: 19866000
I0503 14:53:15.321838 354735552 layer_factory.hpp:77] Creating layer block2-relu4
I0503 14:53:15.321846 354735552 net.cpp:86] Creating Layer block2-relu4
I0503 14:53:15.321852 354735552 net.cpp:408] block2-relu4 <- block2-bn4
I0503 14:53:15.321861 354735552 net.cpp:382] block2-relu4 -> block2-relu4
I0503 14:53:15.321868 354735552 net.cpp:124] Setting up block2-relu4
I0503 14:53:15.321874 354735552 net.cpp:131] Top shape: 100 32 4 4 (51200)
I0503 14:53:15.321887 354735552 net.cpp:139] Memory required for data: 20070800
I0503 14:53:15.321895 354735552 layer_factory.hpp:77] Creating layer block2-res2
I0503 14:53:15.321907 354735552 net.cpp:86] Creating Layer block2-res2
I0503 14:53:15.321913 354735552 net.cpp:408] block2-res2 <- block2-res1_block2-res1_0_split_1
I0503 14:53:15.321981 354735552 net.cpp:408] block2-res2 <- block2-relu4
I0503 14:53:15.321991 354735552 net.cpp:382] block2-res2 -> block2-res2
I0503 14:53:15.322006 354735552 net.cpp:124] Setting up block2-res2
I0503 14:53:15.322013 354735552 net.cpp:131] Top shape: 100 32 4 4 (51200)
I0503 14:53:15.322021 354735552 net.cpp:139] Memory required for data: 20275600
I0503 14:53:15.322026 354735552 layer_factory.hpp:77] Creating layer block2-res2_block2-res2_0_split
I0503 14:53:15.322036 354735552 net.cpp:86] Creating Layer block2-res2_block2-res2_0_split
I0503 14:53:15.322041 354735552 net.cpp:408] block2-res2_block2-res2_0_split <- block2-res2
I0503 14:53:15.322048 354735552 net.cpp:382] block2-res2_block2-res2_0_split -> block2-res2_block2-res2_0_split_0
I0503 14:53:15.322058 354735552 net.cpp:382] block2-res2_block2-res2_0_split -> block2-res2_block2-res2_0_split_1
I0503 14:53:15.322068 354735552 net.cpp:124] Setting up block2-res2_block2-res2_0_split
I0503 14:53:15.322134 354735552 net.cpp:131] Top shape: 100 32 4 4 (51200)
I0503 14:53:15.322150 354735552 net.cpp:131] Top shape: 100 32 4 4 (51200)
I0503 14:53:15.322158 354735552 net.cpp:139] Memory required for data: 20685200
I0503 14:53:15.322165 354735552 layer_factory.hpp:77] Creating layer block2-conv5
I0503 14:53:15.322180 354735552 net.cpp:86] Creating Layer block2-conv5
I0503 14:53:15.322186 354735552 net.cpp:408] block2-conv5 <- block2-res2_block2-res2_0_split_0
I0503 14:53:15.322202 354735552 net.cpp:382] block2-conv5 -> block2-conv5
I0503 14:53:15.322348 354735552 net.cpp:124] Setting up block2-conv5
I0503 14:53:15.322361 354735552 net.cpp:131] Top shape: 100 32 4 4 (51200)
I0503 14:53:15.322369 354735552 net.cpp:139] Memory required for data: 20890000
I0503 14:53:15.322377 354735552 layer_factory.hpp:77] Creating layer block2-bn5
I0503 14:53:15.322386 354735552 net.cpp:86] Creating Layer block2-bn5
I0503 14:53:15.322392 354735552 net.cpp:408] block2-bn5 <- block2-conv5
I0503 14:53:15.322399 354735552 net.cpp:382] block2-bn5 -> block2-bn5
I0503 14:53:15.322423 354735552 net.cpp:124] Setting up block2-bn5
I0503 14:53:15.322429 354735552 net.cpp:131] Top shape: 100 32 4 4 (51200)
I0503 14:53:15.322435 354735552 net.cpp:139] Memory required for data: 21094800
I0503 14:53:15.322443 354735552 layer_factory.hpp:77] Creating layer block2-relu5
I0503 14:53:15.322448 354735552 net.cpp:86] Creating Layer block2-relu5
I0503 14:53:15.322454 354735552 net.cpp:408] block2-relu5 <- block2-bn5
I0503 14:53:15.322463 354735552 net.cpp:382] block2-relu5 -> block2-relu5
I0503 14:53:15.322523 354735552 net.cpp:124] Setting up block2-relu5
I0503 14:53:15.322532 354735552 net.cpp:131] Top shape: 100 32 4 4 (51200)
I0503 14:53:15.322540 354735552 net.cpp:139] Memory required for data: 21299600
I0503 14:53:15.322546 354735552 layer_factory.hpp:77] Creating layer block2-conv6
I0503 14:53:15.322561 354735552 net.cpp:86] Creating Layer block2-conv6
I0503 14:53:15.322567 354735552 net.cpp:408] block2-conv6 <- block2-relu5
I0503 14:53:15.322577 354735552 net.cpp:382] block2-conv6 -> block2-conv6
I0503 14:53:15.322702 354735552 net.cpp:124] Setting up block2-conv6
I0503 14:53:15.322713 354735552 net.cpp:131] Top shape: 100 32 4 4 (51200)
I0503 14:53:15.322721 354735552 net.cpp:139] Memory required for data: 21504400
I0503 14:53:15.322748 354735552 layer_factory.hpp:77] Creating layer block2-bn6
I0503 14:53:15.322762 354735552 net.cpp:86] Creating Layer block2-bn6
I0503 14:53:15.322767 354735552 net.cpp:408] block2-bn6 <- block2-conv6
I0503 14:53:15.322777 354735552 net.cpp:382] block2-bn6 -> block2-bn6
I0503 14:53:15.322798 354735552 net.cpp:124] Setting up block2-bn6
I0503 14:53:15.322803 354735552 net.cpp:131] Top shape: 100 32 4 4 (51200)
I0503 14:53:15.322810 354735552 net.cpp:139] Memory required for data: 21709200
I0503 14:53:15.322818 354735552 layer_factory.hpp:77] Creating layer block2-relu6
I0503 14:53:15.322825 354735552 net.cpp:86] Creating Layer block2-relu6
I0503 14:53:15.322830 354735552 net.cpp:408] block2-relu6 <- block2-bn6
I0503 14:53:15.322896 354735552 net.cpp:382] block2-relu6 -> block2-relu6
I0503 14:53:15.322906 354735552 net.cpp:124] Setting up block2-relu6
I0503 14:53:15.322911 354735552 net.cpp:131] Top shape: 100 32 4 4 (51200)
I0503 14:53:15.322918 354735552 net.cpp:139] Memory required for data: 21914000
I0503 14:53:15.322923 354735552 layer_factory.hpp:77] Creating layer block2-res3
I0503 14:53:15.322930 354735552 net.cpp:86] Creating Layer block2-res3
I0503 14:53:15.322937 354735552 net.cpp:408] block2-res3 <- block2-res2_block2-res2_0_split_1
I0503 14:53:15.322942 354735552 net.cpp:408] block2-res3 <- block2-relu6
I0503 14:53:15.322950 354735552 net.cpp:382] block2-res3 -> block2-res3
I0503 14:53:15.322959 354735552 net.cpp:124] Setting up block2-res3
I0503 14:53:15.322964 354735552 net.cpp:131] Top shape: 100 32 4 4 (51200)
I0503 14:53:15.322970 354735552 net.cpp:139] Memory required for data: 22118800
I0503 14:53:15.322975 354735552 layer_factory.hpp:77] Creating layer block2-res3_block2-res3_0_split
I0503 14:53:15.322983 354735552 net.cpp:86] Creating Layer block2-res3_block2-res3_0_split
I0503 14:53:15.322988 354735552 net.cpp:408] block2-res3_block2-res3_0_split <- block2-res3
I0503 14:53:15.323000 354735552 net.cpp:382] block2-res3_block2-res3_0_split -> block2-res3_block2-res3_0_split_0
I0503 14:53:15.323010 354735552 net.cpp:382] block2-res3_block2-res3_0_split -> block2-res3_block2-res3_0_split_1
I0503 14:53:15.323019 354735552 net.cpp:124] Setting up block2-res3_block2-res3_0_split
I0503 14:53:15.323024 354735552 net.cpp:131] Top shape: 100 32 4 4 (51200)
I0503 14:53:15.323030 354735552 net.cpp:131] Top shape: 100 32 4 4 (51200)
I0503 14:53:15.323036 354735552 net.cpp:139] Memory required for data: 22528400
I0503 14:53:15.323042 354735552 layer_factory.hpp:77] Creating layer block3-conv1
I0503 14:53:15.323053 354735552 net.cpp:86] Creating Layer block3-conv1
I0503 14:53:15.323058 354735552 net.cpp:408] block3-conv1 <- block2-res3_block2-res3_0_split_0
I0503 14:53:15.323066 354735552 net.cpp:382] block3-conv1 -> block3-conv1
I0503 14:53:15.323284 354735552 net.cpp:124] Setting up block3-conv1
I0503 14:53:15.323298 354735552 net.cpp:131] Top shape: 100 64 2 2 (25600)
I0503 14:53:15.323305 354735552 net.cpp:139] Memory required for data: 22630800
I0503 14:53:15.323313 354735552 layer_factory.hpp:77] Creating layer block3-bn1
I0503 14:53:15.323321 354735552 net.cpp:86] Creating Layer block3-bn1
I0503 14:53:15.323326 354735552 net.cpp:408] block3-bn1 <- block3-conv1
I0503 14:53:15.323333 354735552 net.cpp:382] block3-bn1 -> block3-bn1
I0503 14:53:15.323362 354735552 net.cpp:124] Setting up block3-bn1
I0503 14:53:15.323369 354735552 net.cpp:131] Top shape: 100 64 2 2 (25600)
I0503 14:53:15.323375 354735552 net.cpp:139] Memory required for data: 22733200
I0503 14:53:15.323382 354735552 layer_factory.hpp:77] Creating layer block3-relu1
I0503 14:53:15.323390 354735552 net.cpp:86] Creating Layer block3-relu1
I0503 14:53:15.323395 354735552 net.cpp:408] block3-relu1 <- block3-bn1
I0503 14:53:15.323401 354735552 net.cpp:382] block3-relu1 -> block3-relu1
I0503 14:53:15.323413 354735552 net.cpp:124] Setting up block3-relu1
I0503 14:53:15.323418 354735552 net.cpp:131] Top shape: 100 64 2 2 (25600)
I0503 14:53:15.323424 354735552 net.cpp:139] Memory required for data: 22835600
I0503 14:53:15.323429 354735552 layer_factory.hpp:77] Creating layer block3-conv2
I0503 14:53:15.323446 354735552 net.cpp:86] Creating Layer block3-conv2
I0503 14:53:15.323454 354735552 net.cpp:408] block3-conv2 <- block3-relu1
I0503 14:53:15.323469 354735552 net.cpp:382] block3-conv2 -> block3-conv2
I0503 14:53:15.323916 354735552 net.cpp:124] Setting up block3-conv2
I0503 14:53:15.323938 354735552 net.cpp:131] Top shape: 100 64 2 2 (25600)
I0503 14:53:15.323949 354735552 net.cpp:139] Memory required for data: 22938000
I0503 14:53:15.323958 354735552 layer_factory.hpp:77] Creating layer block3-bn2
I0503 14:53:15.323999 354735552 net.cpp:86] Creating Layer block3-bn2
I0503 14:53:15.324009 354735552 net.cpp:408] block3-bn2 <- block3-conv2
I0503 14:53:15.324018 354735552 net.cpp:382] block3-bn2 -> block3-bn2
I0503 14:53:15.324131 354735552 net.cpp:124] Setting up block3-bn2
I0503 14:53:15.324143 354735552 net.cpp:131] Top shape: 100 64 2 2 (25600)
I0503 14:53:15.324151 354735552 net.cpp:139] Memory required for data: 23040400
I0503 14:53:15.324160 354735552 layer_factory.hpp:77] Creating layer block3-relu2
I0503 14:53:15.324175 354735552 net.cpp:86] Creating Layer block3-relu2
I0503 14:53:15.324185 354735552 net.cpp:408] block3-relu2 <- block3-bn2
I0503 14:53:15.324195 354735552 net.cpp:382] block3-relu2 -> block3-relu2
I0503 14:53:15.324208 354735552 net.cpp:124] Setting up block3-relu2
I0503 14:53:15.324220 354735552 net.cpp:131] Top shape: 100 64 2 2 (25600)
I0503 14:53:15.324228 354735552 net.cpp:139] Memory required for data: 23142800
I0503 14:53:15.324232 354735552 layer_factory.hpp:77] Creating layer block3-project
I0503 14:53:15.324252 354735552 net.cpp:86] Creating Layer block3-project
I0503 14:53:15.324260 354735552 net.cpp:408] block3-project <- block2-res3_block2-res3_0_split_1
I0503 14:53:15.324275 354735552 net.cpp:382] block3-project -> block3-project
I0503 14:53:15.324807 354735552 net.cpp:124] Setting up block3-project
I0503 14:53:15.324838 354735552 net.cpp:131] Top shape: 100 64 2 2 (25600)
I0503 14:53:15.324851 354735552 net.cpp:139] Memory required for data: 23245200
I0503 14:53:15.324863 354735552 layer_factory.hpp:77] Creating layer block3-res1
I0503 14:53:15.324875 354735552 net.cpp:86] Creating Layer block3-res1
I0503 14:53:15.324883 354735552 net.cpp:408] block3-res1 <- block3-project
I0503 14:53:15.324890 354735552 net.cpp:408] block3-res1 <- block3-relu2
I0503 14:53:15.324901 354735552 net.cpp:382] block3-res1 -> block3-res1
I0503 14:53:15.324914 354735552 net.cpp:124] Setting up block3-res1
I0503 14:53:15.324920 354735552 net.cpp:131] Top shape: 100 64 2 2 (25600)
I0503 14:53:15.324929 354735552 net.cpp:139] Memory required for data: 23347600
I0503 14:53:15.324936 354735552 layer_factory.hpp:77] Creating layer block3-res1_block3-res1_0_split
I0503 14:53:15.324949 354735552 net.cpp:86] Creating Layer block3-res1_block3-res1_0_split
I0503 14:53:15.324957 354735552 net.cpp:408] block3-res1_block3-res1_0_split <- block3-res1
I0503 14:53:15.324966 354735552 net.cpp:382] block3-res1_block3-res1_0_split -> block3-res1_block3-res1_0_split_0
I0503 14:53:15.324978 354735552 net.cpp:382] block3-res1_block3-res1_0_split -> block3-res1_block3-res1_0_split_1
I0503 14:53:15.324992 354735552 net.cpp:124] Setting up block3-res1_block3-res1_0_split
I0503 14:53:15.324998 354735552 net.cpp:131] Top shape: 100 64 2 2 (25600)
I0503 14:53:15.325006 354735552 net.cpp:131] Top shape: 100 64 2 2 (25600)
I0503 14:53:15.325012 354735552 net.cpp:139] Memory required for data: 23552400
I0503 14:53:15.325018 354735552 layer_factory.hpp:77] Creating layer block3-conv3
I0503 14:53:15.325064 354735552 net.cpp:86] Creating Layer block3-conv3
I0503 14:53:15.325078 354735552 net.cpp:408] block3-conv3 <- block3-res1_block3-res1_0_split_0
I0503 14:53:15.325091 354735552 net.cpp:382] block3-conv3 -> block3-conv3
I0503 14:53:15.325693 354735552 net.cpp:124] Setting up block3-conv3
I0503 14:53:15.325714 354735552 net.cpp:131] Top shape: 100 64 2 2 (25600)
I0503 14:53:15.325727 354735552 net.cpp:139] Memory required for data: 23654800
I0503 14:53:15.325752 354735552 layer_factory.hpp:77] Creating layer block3-bn3
I0503 14:53:15.325770 354735552 net.cpp:86] Creating Layer block3-bn3
I0503 14:53:15.325778 354735552 net.cpp:408] block3-bn3 <- block3-conv3
I0503 14:53:15.325784 354735552 net.cpp:382] block3-bn3 -> block3-bn3
I0503 14:53:15.325809 354735552 net.cpp:124] Setting up block3-bn3
I0503 14:53:15.325816 354735552 net.cpp:131] Top shape: 100 64 2 2 (25600)
I0503 14:53:15.325824 354735552 net.cpp:139] Memory required for data: 23757200
I0503 14:53:15.325832 354735552 layer_factory.hpp:77] Creating layer block3-relu3
I0503 14:53:15.325839 354735552 net.cpp:86] Creating Layer block3-relu3
I0503 14:53:15.325845 354735552 net.cpp:408] block3-relu3 <- block3-bn3
I0503 14:53:15.325855 354735552 net.cpp:382] block3-relu3 -> block3-relu3
I0503 14:53:15.325942 354735552 net.cpp:124] Setting up block3-relu3
I0503 14:53:15.325950 354735552 net.cpp:131] Top shape: 100 64 2 2 (25600)
I0503 14:53:15.325958 354735552 net.cpp:139] Memory required for data: 23859600
I0503 14:53:15.325963 354735552 layer_factory.hpp:77] Creating layer block3-conv4
I0503 14:53:15.325976 354735552 net.cpp:86] Creating Layer block3-conv4
I0503 14:53:15.325983 354735552 net.cpp:408] block3-conv4 <- block3-relu3
I0503 14:53:15.325995 354735552 net.cpp:382] block3-conv4 -> block3-conv4
I0503 14:53:15.326398 354735552 net.cpp:124] Setting up block3-conv4
I0503 14:53:15.326412 354735552 net.cpp:131] Top shape: 100 64 2 2 (25600)
I0503 14:53:15.326421 354735552 net.cpp:139] Memory required for data: 23962000
I0503 14:53:15.326429 354735552 layer_factory.hpp:77] Creating layer block3-bn4
I0503 14:53:15.326439 354735552 net.cpp:86] Creating Layer block3-bn4
I0503 14:53:15.326444 354735552 net.cpp:408] block3-bn4 <- block3-conv4
I0503 14:53:15.326457 354735552 net.cpp:382] block3-bn4 -> block3-bn4
I0503 14:53:15.326474 354735552 net.cpp:124] Setting up block3-bn4
I0503 14:53:15.326480 354735552 net.cpp:131] Top shape: 100 64 2 2 (25600)
I0503 14:53:15.326488 354735552 net.cpp:139] Memory required for data: 24064400
I0503 14:53:15.326495 354735552 layer_factory.hpp:77] Creating layer block3-relu4
I0503 14:53:15.326508 354735552 net.cpp:86] Creating Layer block3-relu4
I0503 14:53:15.326514 354735552 net.cpp:408] block3-relu4 <- block3-bn4
I0503 14:53:15.326521 354735552 net.cpp:382] block3-relu4 -> block3-relu4
I0503 14:53:15.326529 354735552 net.cpp:124] Setting up block3-relu4
I0503 14:53:15.326534 354735552 net.cpp:131] Top shape: 100 64 2 2 (25600)
I0503 14:53:15.326540 354735552 net.cpp:139] Memory required for data: 24166800
I0503 14:53:15.326545 354735552 layer_factory.hpp:77] Creating layer block3-res2
I0503 14:53:15.326555 354735552 net.cpp:86] Creating Layer block3-res2
I0503 14:53:15.326560 354735552 net.cpp:408] block3-res2 <- block3-res1_block3-res1_0_split_1
I0503 14:53:15.326565 354735552 net.cpp:408] block3-res2 <- block3-relu4
I0503 14:53:15.326573 354735552 net.cpp:382] block3-res2 -> block3-res2
I0503 14:53:15.326582 354735552 net.cpp:124] Setting up block3-res2
I0503 14:53:15.326588 354735552 net.cpp:131] Top shape: 100 64 2 2 (25600)
I0503 14:53:15.326594 354735552 net.cpp:139] Memory required for data: 24269200
I0503 14:53:15.326601 354735552 layer_factory.hpp:77] Creating layer block3-res2_block3-res2_0_split
I0503 14:53:15.326608 354735552 net.cpp:86] Creating Layer block3-res2_block3-res2_0_split
I0503 14:53:15.326613 354735552 net.cpp:408] block3-res2_block3-res2_0_split <- block3-res2
I0503 14:53:15.326624 354735552 net.cpp:382] block3-res2_block3-res2_0_split -> block3-res2_block3-res2_0_split_0
I0503 14:53:15.326634 354735552 net.cpp:382] block3-res2_block3-res2_0_split -> block3-res2_block3-res2_0_split_1
I0503 14:53:15.326645 354735552 net.cpp:124] Setting up block3-res2_block3-res2_0_split
I0503 14:53:15.326649 354735552 net.cpp:131] Top shape: 100 64 2 2 (25600)
I0503 14:53:15.326655 354735552 net.cpp:131] Top shape: 100 64 2 2 (25600)
I0503 14:53:15.326661 354735552 net.cpp:139] Memory required for data: 24474000
I0503 14:53:15.326666 354735552 layer_factory.hpp:77] Creating layer block3-conv5
I0503 14:53:15.326676 354735552 net.cpp:86] Creating Layer block3-conv5
I0503 14:53:15.326683 354735552 net.cpp:408] block3-conv5 <- block3-res2_block3-res2_0_split_0
I0503 14:53:15.326691 354735552 net.cpp:382] block3-conv5 -> block3-conv5
I0503 14:53:15.327101 354735552 net.cpp:124] Setting up block3-conv5
I0503 14:53:15.327114 354735552 net.cpp:131] Top shape: 100 64 2 2 (25600)
I0503 14:53:15.327122 354735552 net.cpp:139] Memory required for data: 24576400
I0503 14:53:15.327131 354735552 layer_factory.hpp:77] Creating layer block3-bn5
I0503 14:53:15.327138 354735552 net.cpp:86] Creating Layer block3-bn5
I0503 14:53:15.327145 354735552 net.cpp:408] block3-bn5 <- block3-conv5
I0503 14:53:15.327152 354735552 net.cpp:382] block3-bn5 -> block3-bn5
I0503 14:53:15.327241 354735552 net.cpp:124] Setting up block3-bn5
I0503 14:53:15.327252 354735552 net.cpp:131] Top shape: 100 64 2 2 (25600)
I0503 14:53:15.327260 354735552 net.cpp:139] Memory required for data: 24678800
I0503 14:53:15.327270 354735552 layer_factory.hpp:77] Creating layer block3-relu5
I0503 14:53:15.327277 354735552 net.cpp:86] Creating Layer block3-relu5
I0503 14:53:15.327282 354735552 net.cpp:408] block3-relu5 <- block3-bn5
I0503 14:53:15.327294 354735552 net.cpp:382] block3-relu5 -> block3-relu5
I0503 14:53:15.327304 354735552 net.cpp:124] Setting up block3-relu5
I0503 14:53:15.327311 354735552 net.cpp:131] Top shape: 100 64 2 2 (25600)
I0503 14:53:15.327316 354735552 net.cpp:139] Memory required for data: 24781200
I0503 14:53:15.327322 354735552 layer_factory.hpp:77] Creating layer block3-conv6
I0503 14:53:15.327332 354735552 net.cpp:86] Creating Layer block3-conv6
I0503 14:53:15.327337 354735552 net.cpp:408] block3-conv6 <- block3-relu5
I0503 14:53:15.327345 354735552 net.cpp:382] block3-conv6 -> block3-conv6
I0503 14:53:15.327744 354735552 net.cpp:124] Setting up block3-conv6
I0503 14:53:15.327756 354735552 net.cpp:131] Top shape: 100 64 2 2 (25600)
I0503 14:53:15.327764 354735552 net.cpp:139] Memory required for data: 24883600
I0503 14:53:15.327772 354735552 layer_factory.hpp:77] Creating layer block3-bn6
I0503 14:53:15.327781 354735552 net.cpp:86] Creating Layer block3-bn6
I0503 14:53:15.327787 354735552 net.cpp:408] block3-bn6 <- block3-conv6
I0503 14:53:15.327795 354735552 net.cpp:382] block3-bn6 -> block3-bn6
I0503 14:53:15.327816 354735552 net.cpp:124] Setting up block3-bn6
I0503 14:53:15.327823 354735552 net.cpp:131] Top shape: 100 64 2 2 (25600)
I0503 14:53:15.327831 354735552 net.cpp:139] Memory required for data: 24986000
I0503 14:53:15.327838 354735552 layer_factory.hpp:77] Creating layer block3-relu6
I0503 14:53:15.327847 354735552 net.cpp:86] Creating Layer block3-relu6
I0503 14:53:15.327852 354735552 net.cpp:408] block3-relu6 <- block3-bn6
I0503 14:53:15.327859 354735552 net.cpp:382] block3-relu6 -> block3-relu6
I0503 14:53:15.327867 354735552 net.cpp:124] Setting up block3-relu6
I0503 14:53:15.327873 354735552 net.cpp:131] Top shape: 100 64 2 2 (25600)
I0503 14:53:15.327879 354735552 net.cpp:139] Memory required for data: 25088400
I0503 14:53:15.327884 354735552 layer_factory.hpp:77] Creating layer block3-res3
I0503 14:53:15.327893 354735552 net.cpp:86] Creating Layer block3-res3
I0503 14:53:15.327898 354735552 net.cpp:408] block3-res3 <- block3-res2_block3-res2_0_split_1
I0503 14:53:15.327904 354735552 net.cpp:408] block3-res3 <- block3-relu6
I0503 14:53:15.327916 354735552 net.cpp:382] block3-res3 -> block3-res3
I0503 14:53:15.327926 354735552 net.cpp:124] Setting up block3-res3
I0503 14:53:15.327931 354735552 net.cpp:131] Top shape: 100 64 2 2 (25600)
I0503 14:53:15.327939 354735552 net.cpp:139] Memory required for data: 25190800
I0503 14:53:15.327944 354735552 layer_factory.hpp:77] Creating layer block3-res3_block3-res3_0_split
I0503 14:53:15.327950 354735552 net.cpp:86] Creating Layer block3-res3_block3-res3_0_split
I0503 14:53:15.327955 354735552 net.cpp:408] block3-res3_block3-res3_0_split <- block3-res3
I0503 14:53:15.327962 354735552 net.cpp:382] block3-res3_block3-res3_0_split -> block3-res3_block3-res3_0_split_0
I0503 14:53:15.327971 354735552 net.cpp:382] block3-res3_block3-res3_0_split -> block3-res3_block3-res3_0_split_1
I0503 14:53:15.327981 354735552 net.cpp:124] Setting up block3-res3_block3-res3_0_split
I0503 14:53:15.328012 354735552 net.cpp:131] Top shape: 100 64 2 2 (25600)
I0503 14:53:15.328030 354735552 net.cpp:131] Top shape: 100 64 2 2 (25600)
I0503 14:53:15.328038 354735552 net.cpp:139] Memory required for data: 25395600
I0503 14:53:15.328044 354735552 layer_factory.hpp:77] Creating layer block4-conv1
I0503 14:53:15.328058 354735552 net.cpp:86] Creating Layer block4-conv1
I0503 14:53:15.328065 354735552 net.cpp:408] block4-conv1 <- block3-res3_block3-res3_0_split_0
I0503 14:53:15.328083 354735552 net.cpp:382] block4-conv1 -> block4-conv1
I0503 14:53:15.328897 354735552 net.cpp:124] Setting up block4-conv1
I0503 14:53:15.328918 354735552 net.cpp:131] Top shape: 100 128 1 1 (12800)
I0503 14:53:15.328927 354735552 net.cpp:139] Memory required for data: 25446800
I0503 14:53:15.328936 354735552 layer_factory.hpp:77] Creating layer block4-bn1
I0503 14:53:15.328945 354735552 net.cpp:86] Creating Layer block4-bn1
I0503 14:53:15.328953 354735552 net.cpp:408] block4-bn1 <- block4-conv1
I0503 14:53:15.328968 354735552 net.cpp:382] block4-bn1 -> block4-bn1
I0503 14:53:15.328990 354735552 net.cpp:124] Setting up block4-bn1
I0503 14:53:15.328995 354735552 net.cpp:131] Top shape: 100 128 1 1 (12800)
I0503 14:53:15.329002 354735552 net.cpp:139] Memory required for data: 25498000
I0503 14:53:15.329010 354735552 layer_factory.hpp:77] Creating layer block4-relu1
I0503 14:53:15.329018 354735552 net.cpp:86] Creating Layer block4-relu1
I0503 14:53:15.329023 354735552 net.cpp:408] block4-relu1 <- block4-bn1
I0503 14:53:15.329030 354735552 net.cpp:382] block4-relu1 -> block4-relu1
I0503 14:53:15.329037 354735552 net.cpp:124] Setting up block4-relu1
I0503 14:53:15.329042 354735552 net.cpp:131] Top shape: 100 128 1 1 (12800)
I0503 14:53:15.329049 354735552 net.cpp:139] Memory required for data: 25549200
I0503 14:53:15.329054 354735552 layer_factory.hpp:77] Creating layer block4-conv2
I0503 14:53:15.329063 354735552 net.cpp:86] Creating Layer block4-conv2
I0503 14:53:15.329071 354735552 net.cpp:408] block4-conv2 <- block4-relu1
I0503 14:53:15.329082 354735552 net.cpp:382] block4-conv2 -> block4-conv2
I0503 14:53:15.330353 354735552 net.cpp:124] Setting up block4-conv2
I0503 14:53:15.330365 354735552 net.cpp:131] Top shape: 100 128 1 1 (12800)
I0503 14:53:15.330372 354735552 net.cpp:139] Memory required for data: 25600400
I0503 14:53:15.330379 354735552 layer_factory.hpp:77] Creating layer block4-bn2
I0503 14:53:15.330391 354735552 net.cpp:86] Creating Layer block4-bn2
I0503 14:53:15.330397 354735552 net.cpp:408] block4-bn2 <- block4-conv2
I0503 14:53:15.330406 354735552 net.cpp:382] block4-bn2 -> block4-bn2
I0503 14:53:15.330421 354735552 net.cpp:124] Setting up block4-bn2
I0503 14:53:15.330426 354735552 net.cpp:131] Top shape: 100 128 1 1 (12800)
I0503 14:53:15.330432 354735552 net.cpp:139] Memory required for data: 25651600
I0503 14:53:15.330442 354735552 layer_factory.hpp:77] Creating layer block4-relu2
I0503 14:53:15.330448 354735552 net.cpp:86] Creating Layer block4-relu2
I0503 14:53:15.330454 354735552 net.cpp:408] block4-relu2 <- block4-bn2
I0503 14:53:15.330461 354735552 net.cpp:382] block4-relu2 -> block4-relu2
I0503 14:53:15.330467 354735552 net.cpp:124] Setting up block4-relu2
I0503 14:53:15.330472 354735552 net.cpp:131] Top shape: 100 128 1 1 (12800)
I0503 14:53:15.330478 354735552 net.cpp:139] Memory required for data: 25702800
I0503 14:53:15.330483 354735552 layer_factory.hpp:77] Creating layer block4-project
I0503 14:53:15.330492 354735552 net.cpp:86] Creating Layer block4-project
I0503 14:53:15.330497 354735552 net.cpp:408] block4-project <- block3-res3_block3-res3_0_split_1
I0503 14:53:15.330504 354735552 net.cpp:382] block4-project -> block4-project
I0503 14:53:15.331651 354735552 net.cpp:124] Setting up block4-project
I0503 14:53:15.331661 354735552 net.cpp:131] Top shape: 100 128 1 1 (12800)
I0503 14:53:15.331668 354735552 net.cpp:139] Memory required for data: 25754000
I0503 14:53:15.331674 354735552 layer_factory.hpp:77] Creating layer block4-res1
I0503 14:53:15.331681 354735552 net.cpp:86] Creating Layer block4-res1
I0503 14:53:15.331686 354735552 net.cpp:408] block4-res1 <- block4-project
I0503 14:53:15.331692 354735552 net.cpp:408] block4-res1 <- block4-relu2
I0503 14:53:15.331701 354735552 net.cpp:382] block4-res1 -> block4-res1
I0503 14:53:15.331710 354735552 net.cpp:124] Setting up block4-res1
I0503 14:53:15.331715 354735552 net.cpp:131] Top shape: 100 128 1 1 (12800)
I0503 14:53:15.331722 354735552 net.cpp:139] Memory required for data: 25805200
I0503 14:53:15.331727 354735552 layer_factory.hpp:77] Creating layer block4-res1_block4-res1_0_split
I0503 14:53:15.331769 354735552 net.cpp:86] Creating Layer block4-res1_block4-res1_0_split
I0503 14:53:15.331776 354735552 net.cpp:408] block4-res1_block4-res1_0_split <- block4-res1
I0503 14:53:15.331784 354735552 net.cpp:382] block4-res1_block4-res1_0_split -> block4-res1_block4-res1_0_split_0
I0503 14:53:15.331792 354735552 net.cpp:382] block4-res1_block4-res1_0_split -> block4-res1_block4-res1_0_split_1
I0503 14:53:15.331802 354735552 net.cpp:124] Setting up block4-res1_block4-res1_0_split
I0503 14:53:15.331807 354735552 net.cpp:131] Top shape: 100 128 1 1 (12800)
I0503 14:53:15.331813 354735552 net.cpp:131] Top shape: 100 128 1 1 (12800)
I0503 14:53:15.331820 354735552 net.cpp:139] Memory required for data: 25907600
I0503 14:53:15.331825 354735552 layer_factory.hpp:77] Creating layer block4-conv3
I0503 14:53:15.331833 354735552 net.cpp:86] Creating Layer block4-conv3
I0503 14:53:15.331840 354735552 net.cpp:408] block4-conv3 <- block4-res1_block4-res1_0_split_0
I0503 14:53:15.331849 354735552 net.cpp:382] block4-conv3 -> block4-conv3
I0503 14:53:15.333081 354735552 net.cpp:124] Setting up block4-conv3
I0503 14:53:15.333092 354735552 net.cpp:131] Top shape: 100 128 1 1 (12800)
I0503 14:53:15.333098 354735552 net.cpp:139] Memory required for data: 25958800
I0503 14:53:15.333106 354735552 layer_factory.hpp:77] Creating layer block4-bn3
I0503 14:53:15.333115 354735552 net.cpp:86] Creating Layer block4-bn3
I0503 14:53:15.333122 354735552 net.cpp:408] block4-bn3 <- block4-conv3
I0503 14:53:15.333130 354735552 net.cpp:382] block4-bn3 -> block4-bn3
I0503 14:53:15.333148 354735552 net.cpp:124] Setting up block4-bn3
I0503 14:53:15.333153 354735552 net.cpp:131] Top shape: 100 128 1 1 (12800)
I0503 14:53:15.333159 354735552 net.cpp:139] Memory required for data: 26010000
I0503 14:53:15.333168 354735552 layer_factory.hpp:77] Creating layer block4-relu3
I0503 14:53:15.333173 354735552 net.cpp:86] Creating Layer block4-relu3
I0503 14:53:15.333178 354735552 net.cpp:408] block4-relu3 <- block4-bn3
I0503 14:53:15.333184 354735552 net.cpp:382] block4-relu3 -> block4-relu3
I0503 14:53:15.333192 354735552 net.cpp:124] Setting up block4-relu3
I0503 14:53:15.333197 354735552 net.cpp:131] Top shape: 100 128 1 1 (12800)
I0503 14:53:15.333202 354735552 net.cpp:139] Memory required for data: 26061200
I0503 14:53:15.333207 354735552 layer_factory.hpp:77] Creating layer block4-conv4
I0503 14:53:15.333216 354735552 net.cpp:86] Creating Layer block4-conv4
I0503 14:53:15.333221 354735552 net.cpp:408] block4-conv4 <- block4-relu3
I0503 14:53:15.333231 354735552 net.cpp:382] block4-conv4 -> block4-conv4
I0503 14:53:15.334487 354735552 net.cpp:124] Setting up block4-conv4
I0503 14:53:15.334496 354735552 net.cpp:131] Top shape: 100 128 1 1 (12800)
I0503 14:53:15.334502 354735552 net.cpp:139] Memory required for data: 26112400
I0503 14:53:15.334508 354735552 layer_factory.hpp:77] Creating layer block4-bn4
I0503 14:53:15.334518 354735552 net.cpp:86] Creating Layer block4-bn4
I0503 14:53:15.334523 354735552 net.cpp:408] block4-bn4 <- block4-conv4
I0503 14:53:15.334532 354735552 net.cpp:382] block4-bn4 -> block4-bn4
I0503 14:53:15.334547 354735552 net.cpp:124] Setting up block4-bn4
I0503 14:53:15.334551 354735552 net.cpp:131] Top shape: 100 128 1 1 (12800)
I0503 14:53:15.334558 354735552 net.cpp:139] Memory required for data: 26163600
I0503 14:53:15.334564 354735552 layer_factory.hpp:77] Creating layer block4-relu4
I0503 14:53:15.334573 354735552 net.cpp:86] Creating Layer block4-relu4
I0503 14:53:15.334578 354735552 net.cpp:408] block4-relu4 <- block4-bn4
I0503 14:53:15.334583 354735552 net.cpp:382] block4-relu4 -> block4-relu4
I0503 14:53:15.334591 354735552 net.cpp:124] Setting up block4-relu4
I0503 14:53:15.334595 354735552 net.cpp:131] Top shape: 100 128 1 1 (12800)
I0503 14:53:15.334601 354735552 net.cpp:139] Memory required for data: 26214800
I0503 14:53:15.334606 354735552 layer_factory.hpp:77] Creating layer block4-res2
I0503 14:53:15.334612 354735552 net.cpp:86] Creating Layer block4-res2
I0503 14:53:15.334619 354735552 net.cpp:408] block4-res2 <- block4-res1_block4-res1_0_split_1
I0503 14:53:15.334653 354735552 net.cpp:408] block4-res2 <- block4-relu4
I0503 14:53:15.334662 354735552 net.cpp:382] block4-res2 -> block4-res2
I0503 14:53:15.334671 354735552 net.cpp:124] Setting up block4-res2
I0503 14:53:15.334676 354735552 net.cpp:131] Top shape: 100 128 1 1 (12800)
I0503 14:53:15.334682 354735552 net.cpp:139] Memory required for data: 26266000
I0503 14:53:15.334686 354735552 layer_factory.hpp:77] Creating layer block4-res2_block4-res2_0_split
I0503 14:53:15.334697 354735552 net.cpp:86] Creating Layer block4-res2_block4-res2_0_split
I0503 14:53:15.334702 354735552 net.cpp:408] block4-res2_block4-res2_0_split <- block4-res2
I0503 14:53:15.334708 354735552 net.cpp:382] block4-res2_block4-res2_0_split -> block4-res2_block4-res2_0_split_0
I0503 14:53:15.334717 354735552 net.cpp:382] block4-res2_block4-res2_0_split -> block4-res2_block4-res2_0_split_1
I0503 14:53:15.334726 354735552 net.cpp:124] Setting up block4-res2_block4-res2_0_split
I0503 14:53:15.334730 354735552 net.cpp:131] Top shape: 100 128 1 1 (12800)
I0503 14:53:15.334736 354735552 net.cpp:131] Top shape: 100 128 1 1 (12800)
I0503 14:53:15.334780 354735552 net.cpp:139] Memory required for data: 26368400
I0503 14:53:15.334794 354735552 layer_factory.hpp:77] Creating layer block4-conv5
I0503 14:53:15.334807 354735552 net.cpp:86] Creating Layer block4-conv5
I0503 14:53:15.334813 354735552 net.cpp:408] block4-conv5 <- block4-res2_block4-res2_0_split_0
I0503 14:53:15.334823 354735552 net.cpp:382] block4-conv5 -> block4-conv5
I0503 14:53:15.336045 354735552 net.cpp:124] Setting up block4-conv5
I0503 14:53:15.336055 354735552 net.cpp:131] Top shape: 100 128 1 1 (12800)
I0503 14:53:15.336062 354735552 net.cpp:139] Memory required for data: 26419600
I0503 14:53:15.336069 354735552 layer_factory.hpp:77] Creating layer block4-bn5
I0503 14:53:15.336076 354735552 net.cpp:86] Creating Layer block4-bn5
I0503 14:53:15.336081 354735552 net.cpp:408] block4-bn5 <- block4-conv5
I0503 14:53:15.336088 354735552 net.cpp:382] block4-bn5 -> block4-bn5
I0503 14:53:15.336105 354735552 net.cpp:124] Setting up block4-bn5
I0503 14:53:15.336110 354735552 net.cpp:131] Top shape: 100 128 1 1 (12800)
I0503 14:53:15.336117 354735552 net.cpp:139] Memory required for data: 26470800
I0503 14:53:15.336123 354735552 layer_factory.hpp:77] Creating layer block4-relu5
I0503 14:53:15.336130 354735552 net.cpp:86] Creating Layer block4-relu5
I0503 14:53:15.336135 354735552 net.cpp:408] block4-relu5 <- block4-bn5
I0503 14:53:15.336141 354735552 net.cpp:382] block4-relu5 -> block4-relu5
I0503 14:53:15.336149 354735552 net.cpp:124] Setting up block4-relu5
I0503 14:53:15.336154 354735552 net.cpp:131] Top shape: 100 128 1 1 (12800)
I0503 14:53:15.336160 354735552 net.cpp:139] Memory required for data: 26522000
I0503 14:53:15.336165 354735552 layer_factory.hpp:77] Creating layer block4-conv6
I0503 14:53:15.336176 354735552 net.cpp:86] Creating Layer block4-conv6
I0503 14:53:15.336182 354735552 net.cpp:408] block4-conv6 <- block4-relu5
I0503 14:53:15.336220 354735552 net.cpp:382] block4-conv6 -> block4-conv6
I0503 14:53:15.337581 354735552 net.cpp:124] Setting up block4-conv6
I0503 14:53:15.337594 354735552 net.cpp:131] Top shape: 100 128 1 1 (12800)
I0503 14:53:15.337602 354735552 net.cpp:139] Memory required for data: 26573200
I0503 14:53:15.337625 354735552 layer_factory.hpp:77] Creating layer block4-bn6
I0503 14:53:15.337635 354735552 net.cpp:86] Creating Layer block4-bn6
I0503 14:53:15.337642 354735552 net.cpp:408] block4-bn6 <- block4-conv6
I0503 14:53:15.337649 354735552 net.cpp:382] block4-bn6 -> block4-bn6
I0503 14:53:15.337668 354735552 net.cpp:124] Setting up block4-bn6
I0503 14:53:15.337674 354735552 net.cpp:131] Top shape: 100 128 1 1 (12800)
I0503 14:53:15.337680 354735552 net.cpp:139] Memory required for data: 26624400
I0503 14:53:15.337688 354735552 layer_factory.hpp:77] Creating layer block4-relu6
I0503 14:53:15.337697 354735552 net.cpp:86] Creating Layer block4-relu6
I0503 14:53:15.337702 354735552 net.cpp:408] block4-relu6 <- block4-bn6
I0503 14:53:15.337740 354735552 net.cpp:382] block4-relu6 -> block4-relu6
I0503 14:53:15.337751 354735552 net.cpp:124] Setting up block4-relu6
I0503 14:53:15.337756 354735552 net.cpp:131] Top shape: 100 128 1 1 (12800)
I0503 14:53:15.337762 354735552 net.cpp:139] Memory required for data: 26675600
I0503 14:53:15.337769 354735552 layer_factory.hpp:77] Creating layer block4-res3
I0503 14:53:15.337775 354735552 net.cpp:86] Creating Layer block4-res3
I0503 14:53:15.337781 354735552 net.cpp:408] block4-res3 <- block4-res2_block4-res2_0_split_1
I0503 14:53:15.337787 354735552 net.cpp:408] block4-res3 <- block4-relu6
I0503 14:53:15.337795 354735552 net.cpp:382] block4-res3 -> block4-res3
I0503 14:53:15.337806 354735552 net.cpp:124] Setting up block4-res3
I0503 14:53:15.337811 354735552 net.cpp:131] Top shape: 100 128 1 1 (12800)
I0503 14:53:15.337817 354735552 net.cpp:139] Memory required for data: 26726800
I0503 14:53:15.337823 354735552 layer_factory.hpp:77] Creating layer pool
I0503 14:53:15.344986 354735552 net.cpp:86] Creating Layer pool
I0503 14:53:15.345002 354735552 net.cpp:408] pool <- block4-res3
I0503 14:53:15.345011 354735552 net.cpp:382] pool -> pool
I0503 14:53:15.345023 354735552 net.cpp:124] Setting up pool
I0503 14:53:15.345028 354735552 net.cpp:131] Top shape: 100 128 1 1 (12800)
I0503 14:53:15.345037 354735552 net.cpp:139] Memory required for data: 26778000
I0503 14:53:15.345043 354735552 layer_factory.hpp:77] Creating layer dropout1
I0503 14:53:15.345052 354735552 net.cpp:86] Creating Layer dropout1
I0503 14:53:15.345057 354735552 net.cpp:408] dropout1 <- pool
I0503 14:53:15.345064 354735552 net.cpp:382] dropout1 -> dropout1
I0503 14:53:15.345078 354735552 net.cpp:124] Setting up dropout1
I0503 14:53:15.345083 354735552 net.cpp:131] Top shape: 100 128 1 1 (12800)
I0503 14:53:15.345090 354735552 net.cpp:139] Memory required for data: 26829200
I0503 14:53:15.345095 354735552 layer_factory.hpp:77] Creating layer prob
I0503 14:53:15.345106 354735552 net.cpp:86] Creating Layer prob
I0503 14:53:15.345111 354735552 net.cpp:408] prob <- dropout1
I0503 14:53:15.345119 354735552 net.cpp:382] prob -> prob
I0503 14:53:15.345170 354735552 net.cpp:124] Setting up prob
I0503 14:53:15.345175 354735552 net.cpp:131] Top shape: 100 10 (1000)
I0503 14:53:15.345181 354735552 net.cpp:139] Memory required for data: 26833200
I0503 14:53:15.345188 354735552 layer_factory.hpp:77] Creating layer loss
I0503 14:53:15.345196 354735552 net.cpp:86] Creating Layer loss
I0503 14:53:15.345656 354735552 net.cpp:408] loss <- prob
I0503 14:53:15.345669 354735552 net.cpp:408] loss <- label
I0503 14:53:15.345679 354735552 net.cpp:382] loss -> loss
…
